Models/VAD/MFB_GRU/model.pth (torch, 115351 bytes, 5 tensors)

weight_ih_l0 f4 [192, 80]
000000 00 54 75 ba 5e 54 89 3d 16 b3 d2 bd 80 66 bc bd
       -0.0009358525 0.06705545 -0.10288064 -0.09199238
000010 f4 32 45 bd ec 4b 09 3d 40 4f 22 bb ce fa ca 3d
       -0.048144296 0.03351967 -0.0024766475 0.099111184
000020 70 bf 35 bc 4c 7b 07 3d ac bb 1a bd 70 48 c9 bc
       -0.011093006 0.03307657 -0.037776634 -0.024570674
000030 b8 91 f4 bd 52 8b a9 bd e8 0e 53 bd 00 bb 97 3b
       -0.11941856 -0.08278526 -0.051527888 0.0046304464
000040 60 69 4a 3d 18 9b 99 3d 8c 8d ad bd fc f4 5e bd
       0.0494169 0.07500285 -0.084742635 -0.054432854
000050 98 f7 39 3d 4e 94 d4 3d 48 bd d2 bc 5c 91 bf 3d
       0.04540214 0.103798494 -0.025725022 0.09353897
000060 40 0d a5 bc 10 b5 58 3c 4a cd e7 3d ce 7b ed bd
       -0.02014792 0.013226762 0.11318453 -0.115958795
000070 66 29 a1 bd e0 9e 01 bd dc 93 47 bd 28 2f dd 3d
       -0.07869224 -0.031645656 -0.048724994 0.1080001
000080 1a ef a5 bd c0 b0 6b bd 1a da b2 bd 76 c2 ef bd
       -0.08102246 -0.05754161 -0.08733006 -0.11707012
000090 04 70 95 bd 9e 0e dc 3d bc 76 64 3d 00 27 78 3d
       -0.07296756 0.107449755 0.055777296 0.06058407
0000a0 40 6a d7 3b 3a 3f 83 bd c0 3e ad 3c 9e 06 ef bd
       0.0065739453 -0.06408544 0.021148086 -0.11671184
0000b0 1a fa b8 bd c6 f9 83 bd 26 85 a1 3d 26 19 96 3d
       -0.09032078 -0.06444125 0.07886724 0.073290154
0000c0 c8 11 63 bd 20 cb 93 bb 40 ba a3 3d 82 7f fe 3d
       -0.05543688 -0.0045102984 0.07994509 0.12426664
0000d0 24 34 4b 3d c8 55 8a 3c fe a4 ab 3d c0 bb 96 bd
       0.049610272 0.016886607 0.08381079 -0.07360029
0000e0 f8 d0 be 3c 6c 7a c6 bd 18 6e b1 bd d2 3e 84 bd
       0.023293003 -0.09691319 -0.08663577 -0.064572945
0000f0 8c aa 67 3d f8 e7 4d 3d 6a a4 97 bd c8 ad 1a 3d
       0.05655913 0.05027005 -0.07404406 0.037763387
000100 6e 89 8c 3d 20 3f 81 bc 40 64 9c 3b 00 44 ed 3c
       0.0686215 -0.01577717 0.004772693 0.028963089
000110 00 d1 9e 3d 48 cf f5 3d 96 47 c5 bd ec a1 3b bd
       0.07754707 0.120024264 -0.096327946 -0.045808718
000120 98 38 49 3d d0 1b d4 3d e8 c5 de 3d 22 e2 e1 3d
       0.049126238 0.10356867 0.10877591 0.110294595
000130 78 ca cb 3c f8 9c de bd 90 66 3c 3c ac 27 a0 bd
       0.024876818 -0.10869783 0.011499062 -0.07820067
000140 8c 94 ee bd 3e 74 e3 3d f0 a6 c2 3d fe 5d ff bd
       -0.11649427 0.11106156 0.09504497 -0.124690995
000150 08 aa bf 3c c8 80 ac bc b8 82 a8 bc 1c 5f 6a bd
       0.023396507 -0.021057501 -0.020570144 -0.05721961
000160 8c e4 44 3d 34 a1 97 bd dc b1 3b 3d 16 76 81 3d
       0.04806952 -0.07403794 0.045823917 0.06321351
000170 5c 43 b7 3d 48 71 3f 3d 4a 5f fd bd 00 11 a6 bd
       0.08948395 0.046738893 -0.123716906 -0.08108711
000180 38 a6 7f 3d 18 53 d6 3c 96 b3 c7 bd e8 68 93 bd
       0.062414378 0.026162669 -0.0975105 -0.07197744
000190 f2 d4 f0 3d 54 7f ac 3d b0 3e 5f bd d4 dc 00 bd
       0.11759366 0.084227234 -0.054503143 -0.031460598
0001a0 78 dd f3 bd 80 3e 13 bb 78 c8 c0 bd a2 77 c5 bd
       -0.11907476 -0.0022467673 -0.094132364 -0.09641959
0001b0 20 b0 e1 bb a0 bf 99 3c f4 ad 51 bd 98 e7 97 3d
       -0.006887451 0.018768132 -0.051191285 0.0741722
0001c0 38 c9 9b bd 68 49 e8 3d d0 6f af 3d 64 e1 d7 bd
       -0.07606739 0.11342126 0.085662484 -0.10541037
0001d0 88 db fe bc 80 d2 b8 3b 18 67 95 3c d0 dd f2 3c
       -0.03111054 0.005640328 0.018237635 0.029646784
0001e0 5c ec 48 3d e0 59 f5 3b cc d1 79 bd d4 45 72 3d
       0.049053535 0.0074875206 -0.060991094 0.059148625
0001f0 56 91 f5 bd a0 bb 97 bd 3c 2b 00 bd ec 66 79 bd
       -0.11990611 -0.074088335 -0.03129123 -0.06088917
000200 5c 1d 33 bd ba d2 d1 bd 00 d2 d9 bc f8 e2 da 3c
       -0.04372917 -0.10245271 -0.026589394 0.026719555
000210 76 c6 a6 bd 40 34 d2 bb 00 42 b7 3d f0 88 52 bc
       -0.08143322 -0.00641492 0.089481354 -0.012850031
000220 80 ac 63 3b c0 ad 30 bc 10 3d cf 3c 60 c6 a2 3d
       0.003474027 -0.010783613 0.025297672 0.07947993
000230 ba 7e f2 3d 06 93 a2 3d c4 0c f3 3d 60 1d 14 bc
       0.118405774 0.07938199 0.11867669 -0.009040207
000240 66 f8 e5 bd 40 ba 72 bd ce 4f ae 3d 00 6b 54 ba
       -0.11229019 -0.059259653 0.08511315 -0.00081031024
000250 dc 7c 7e bd 02 2d c4 bd 00 94 ef bd ec 10 d8 bd
       -0.062130794 -0.09578897 -0.11698151 -0.105501026
000260 70 b4 cf bc 56 64 8c 3d 74 67 8a 3d 02 e5 f6 bd
       -0.025354594 0.06855075 0.06758013 -0.120553985
000270 2e b0 9f 3d 8a 52 c8 bd f0 7b d8 bc 1c 9a 4f bd
       0.077972755 -0.09781368 -0.026426286 -0.05068408
000280 f0 3c c5 bc 10 0e c9 bc ba b8 e5 bd 44 0a dd bd
       -0.024076909 -0.024542838 -0.112168744 -0.10792974
000290 28 3c a0 bc 80 e1 d3 3a b8 96 68 bd b8 de 40 3d
       -0.019559935 0.0016165227 -0.05678436 0.0470874
0002a0 3a 6a e6 bd c0 36 0a bc a2 21 e1 3d 38 d7 50 bd
       -0.1125073 -0.008435905 0.10992743 -0.0509865
0002b0 36 2b e7 3d 38 6c 39 3d ae 07 e7 bd 74 f8 a1 3d
       0.11287539 0.04526922 -0.11280762 0.07908717
0002c0 f0 53 6c bc 70 8f 64 bd 14 b6 cc 3d 54 df ce bd
       -0.014424309 -0.055800855 0.09995666 -0.1010119
0002d0 b0 c2 5b 3c c0 64 d6 bc 16 d0 b6 3d 08 ec 0e 3d
       0.013413116 -0.026171088 0.08926408 0.034893066
0002e0 cc 04 76 3d 40 d1 34 3d 00 3f f6 bc 50 5a d7 bc
       0.06006317 0.04414487 -0.030059338 -0.026288182
0002f0 00 f7 d2 bd 4c b6 8a 3d 26 42 cb 3d 5c 29 af 3d
       -0.10301018 0.067730516 0.09924726 0.085528105
000300 ac 93 b4 bd 60 ae b6 3b 90 76 b4 bd 88 ec 8c bd
       -0.08817229 0.0055749863 -0.088116765 -0.06881052
000310 30 2c 95 bd 34 f9 2e 3d c4 8d 98 bd 00 ba 32 bb
       -0.07283819 0.042718127 -0.07448915 -0.002727151
000320 a0 4f ac 3b 04 06 a5 3d fa 83 c1 bd 44 bf af bd
       0.0052585155 0.08057788 -0.09449001 -0.08581403
000330 3c a6 94 bd d6 2e b3 3d cc 0b 38 bd e0 ee d7 3d
       -0.07258269 0.087491676 -0.044933125 0.10543609
000340 a0 24 39 3d 40 aa 81 3c 00 ed 73 ba 08 6d ca bc
       0.045200944 0.015828252 -0.000930503 -0.024710193
000350 40 7a 80 3c 30 d3 e9 bc 00 3e 66 ba c0 a7 82 3c
       0.015683293 -0.028543085 -0.00087830424 0.01594913
000360 98 3e c8 bd 7a 2d 86 bd d8 b7 ce 3d 86 c1 cf bd
       -0.09777564 -0.06551643 0.10093659 -0.101443335
000370 20 0f 13 bc c0 3e fd 3d 10 f4 38 3d c0 f0 67 3b
       -0.008975774 0.12365484 0.04515463 0.00353913
000380 26 da dd bd 2c a2 7d 3d 08 58 b6 bd a8 56 11 bd
       -0.10832624 0.061922237 -0.089035094 -0.035483032
000390 cc c8 2b bd 38 a4 97 bc 80 36 b3 3a 96 26 d3 3d
       -0.04193954 -0.018510923 0.0013672858 0.10310094
0003a0 80 ab 7f 3c 20 4c e5 3d 30 99 9c 3d c6 d8 a1 bd
       0.015604854 0.1119616 0.07646406 -0.079026744
0003b0 54 a2 65 3d 24 f7 b4 bd 9c ff 58 bd 40 97 16 3d
       0.05606301 -0.08836201 -0.052978143 0.036765337
0003c0 f0 0e 29 3d f2 0e c0 3d 28 d2 24 bd 00 d4 51 39
       0.04127401 0.093778506 -0.040239483 0.0002001077
0003d0 7a cb 83 3d 5a 93 f7 bd 42 15 b9 3d 30 b1 d3 bd
       0.064352944 -0.12088652 0.09037258 -0.1033653
0003e0 00 d0 e1 3a e0 18 ae bc 0a d4 86 bd d8 57 87 3c
       0.0017228127 -0.021252096 -0.06583412 0.01652138
0003f0 f2 b0 d3 3d e8 aa 15 bd 56 fc 97 bd 84 5b 3d bd
       0.10336484 -0.036539942 -0.07421176 -0.046229854

weight_hh_l0 f4 [192, 64]
000000 c0 35 63 3d c0 48 ec 3b c8 9b fc 3c 0e 0e cd bd
       0.055471182 0.007210821 0.030836001 -0.10012446
000010 24 b5 f2 bd 00 c3 d3 bd d6 af b1 3d 88 d6 81 bc
       -0.11850956 -0.10339928 0.08676116 -0.015849367
000020 84 4b 0d 3d b0 cb 8e 3d 36 b8 9f bd e0 eb cb 3b
       0.034495845 0.06972444 -0.07798807 0.006223187
000030 de 76 d5 3d a0 24 3f 3d ca 60 ce 3d c0 b8 72 3d
       0.10423063 0.046665788 0.10077055 0.059258223
000040 7a f4 b8 bd 20 52 de bd c8 36 9e bc 78 07 d5 bd
       -0.09031005 -0.10855508 -0.019313231 -0.10401815
000050 9c 30 47 3d 0c 5e b8 3d 64 e8 a6 3d c8 58 f6 3d
       0.048630342 0.09002313 0.08149794 0.120286524
000060 44 c1 4f bd b2 ae c7 3d ea 9b dc bd e4 6d 6c bd
       -0.05072142 0.09750117 -0.10771926 -0.057721987
000070 a0 83 db 3b 6e 2f ab 3d a4 90 aa bd e6 c7 f2 bd
       0.0066990405 0.08358656 -0.08328369 -0.11854534
000080 7a 4e e6 bd 38 43 c7 3c 26 30 8c 3d 22 25 ea 3d
       -0.11245437 0.024324045 0.06845121 0.11432864
000090 50 3f bb 3d 12 89 f9 3d 90 0d d0 3d 60 6a f4 bd
       0.09142935 0.12184347 0.10158837 -0.11934352
0000a0 68 b9 ff bd 60 bf 01 3d 6e 87 b5 bd a0 ad 0f 3d
       -0.12486535 0.03167665 -0.08863722 0.03507769
0000b0 0a cf d8 3d e8 67 a3 3c 38 64 db bc 04 3b 3e bd
       0.105863646 0.019947007 -0.026781186 -0.046443
0000c0 1a 4c 87 bd 48 6c ce 3d 48 ff 1f bd b0 53 c8 3d
       -0.06606312 0.10079247 -0.039061815 0.09781587
0000d0 dc 89 10 3d 40 5b 5f bb 7e 12 ba 3d b4 de 09 bd
       0.035287723 -0.003408149 0.09085558 -0.033659652
0000e0 dc 23 24 3d c8 4d cb 3c f2 6b ef bd 3a 7c a8 bd
       0.04007326 0.024817362 -0.11690511 -0.08226819
0000f0 4e 3a e5 3d d0 e3 67 bc c0 a6 74 bd 36 6a ba bd
       0.11192761 -0.014153436 -0.059729338 -0.091022894
000100 00 ec ec b9 60 c6 c1 bd 98 e8 2d bd 4c 4e c2 3d
       -0.0004518926 -0.09461665 -0.042458147 0.0948759
000110 96 b6 f9 3d a4 d0 d2 3d 74 14 02 bd 50 a6 e4 bd
       0.12193029 0.10293701 -0.031757787 -0.11164534
000120 62 39 82 3d 38 1a 1c bd 58 d3 b5 bd 78 4e ff 3c
       0.06358601 -0.03811094 -0.08878201 0.031165347
000130 b8 b7 b5 bc 0c d5 ef 3d 10 bc e1 3c 5c ef 52 3d
       -0.02218233 0.11710557 0.027555496 0.051497802
000140 f4 a8 0f 3d cc 56 28 3d 72 f9 f5 bd d0 a3 21 bc
       0.035073236 0.0410984 -0.120104685 -0.009865716
000150 cc 35 23 3d 5a 16 a2 bd da 1a d7 3d 70 a2 58 3c
       0.039846227 -0.079144195 0.105031684 0.013222322
000160 e0 38 6a 3c 14 62 2e 3d b4 47 41 bd dc 7a 9a 3d
       0.014295787 0.042574003 -0.047187522 0.07542965
000170 dc 35 6c 3d a0 fb 66 3d 7c 9e 92 bd 78 88 89 bc
       0.05766855 0.056392312 -0.07159135 -0.016788706
000180 a8 da 25 3d 80 05 7e bb cc 60 49 bd 40 d3 a5 bc
       0.04049173 -0.0038760602 -0.04916458 -0.020242333
000190 80 88 38 3d 34 db 81 bd 8a d2 ff 3d ac 8c 40 3d
       0.04505205 -0.06340638 0.12491329 0.047009155
0001a0 6e 47 bd 3d d8 20 9e 3c a8 89 32 3d 00 40 c0 bc
       0.0924214 0.01930277 0.04358831 -0.023468018
0001b0 bc fb 3e bd 30 7c b2 bc 30 71 ae bd 34 35 ed bd
       -0.04662679 -0.021787733 -0.085176826 -0.11582413
0001c0 10 9b 52 bc 34 93 a4 3d 38 79 4b 3d 30 4b fa 3d
       -0.012854353 0.08035889 0.04967615 0.12221372
0001d0 f0 a9 83 bc c8 02 9c 3c 40 38 a7 3c 6c 0f 8e 3d
       -0.016072243 0.019044295 0.020412564 0.06936535
0001e0 7c 89 e1 3d 68 fc c0 bd 94 d6 2f bd 00 5f 52 bc
       0.11012551 -0.09423143 -0.042929247 -0.012840033
0001f0 70 64 c3 bc 26 94 a0 3d 2c c8 fb bd 94 ef ae bd
       -0.023851603 0.07840757 -0.12294039 -0.0854179
000200 90 f6 a6 bd e8 9d 5a 3d 10 9b c0 bd 00 b7 6c 3c
       -0.08152497 0.053373247 -0.09404576 0.0144479275
000210 28 d4 82 bc 40 87 dd 3c 80 d0 0a bb 20 91 ab 3b
       -0.015970305 0.027042031 -0.0021181405 0.005235806
000220 18 19 ba 3d a8 9d c2 3c 38 3f 6f 3d 82 d8 b4 bd
       0.090868175 0.023756817 0.0584099 -0.08830358
000230 78 65 e7 bc 20 56 81 bd f8 c1 b3 bd d2 34 97 bd
       -0.028246626 -0.06315255 -0.08777231 -0.073831216
000240 38 40 02 bd 9c c5 24 3d 18 0f 0d bd be e4 c5 bd
       -0.031799525 0.040227517 -0.034438223 -0.0966277
000250 f6 01 af bd d8 e2 dd 3c a0 c1 d9 3b 88 45 e9 bd
       -0.08545296 0.027085707 0.0066453964 -0.11390215
000260 a8 7e ce 3c b0 3a 1a 3d 46 e4 e5 3d 90 fd f2 bc
       0.025206879 0.037653625 0.1122518 -0.029661924
000270 24 08 b2 3d 4c a1 64 bd 70 d8 dc 3d 12 69 d1 bd
       0.08692959 -0.055817887 0.1078347 -0.10225119
000280 48 de f6 bc 62 b5 d9 bd 0c 09 70 bd a8 bb 2e 3d
       -0.030135289 -0.10630299 -0.058602378 0.04265943
000290 bc ee 67 3d 7c 50 a4 3d 20 74 d7 3d 58 5a 22 bd
       0.05662416 0.08023164 0.10520196 -0.03963694
0002a0 b8 09 a0 bd e0 e6 c5 3c 94 f2 c8 bd 00 0b 70 bd
       -0.07814354 0.024157941 -0.09811893 -0.05860424
0002b0 b0 84 ee bc 44 a3 f2 bd 60 8f 00 bd 40 53 89 3c
       -0.029116005 -0.11847547 -0.031386733 0.01676333
0002c0 4c 99 1c bd d8 e1 7d bd 00 df a5 3b d0 c2 82 bd
       -0.038232133 -0.06198296 0.005061984 -0.06384814
0002d0 b8 ad 6c bd 14 28 9d bd 7c ab 42 bd 90 52 0e 3c
       -0.05778286 -0.0767366 -0.04752682 0.008686677
0002e0 f4 59 83 bd 3a 18 a3 bd 8e 2a bb bd 02 84 f1 bd
       -0.064136416 -0.07963605 -0.09138976 -0.117927566
0002f0 68 17 aa 3c f0 71 c1 bc b0 ab f5 3c 44 a6 3a bd
       0.020763114 -0.0236139 0.029989094 -0.04556872
000300 40 b5 00 3d 3c 4d b7 3d e8 47 86 3c e4 5c cc 3d
       0.031422853 0.08950278 0.01639171 0.09978655
000310 78 0c d9 3d c0 0d 83 3b e4 fd b7 3d 20 58 e3 bb
       0.10598081 0.003999442 0.08983973 -0.0069379956
000320 5e b5 e8 bd 08 57 c6 bc ec 2a 4e 3d f0 93 97 3d
       -0.11362718 -0.024211422 0.050333902 0.07401264
000330 54 1a 74 3d 80 6b 09 3d 0c 29 76 bd e0 8a ca 3b
       0.05959542 0.033549786 -0.06009774 0.006181106
000340 10 9f 02 3c f4 f2 00 3d f6 54 a0 3d 20 23 b0 bc
       0.007972494 0.0314817 0.07828705 -0.021501124
000350 6c 8b 59 3d ea b9 f7 bd 6e 41 b7 bd f4 f1 20 bd
       0.05311148 -0.12096007 -0.089480266 -0.039293244
000360 a0 85 b8 3d 68 22 ee bc 6e 99 93 bd 26 1f ce 3d
       0.09009862 -0.02906914 -0.07206999 0.10064535
000370 e8 bd ba bc 80 ec 2b 3d c0 f5 43 3d 92 28 ef 3d
       -0.022795632 0.04197359 0.047841787 0.1167766
000380 50 63 c8 3c 80 51 4f bc 1c fe 96 3d 70 3c 6d bc
       0.024461418 -0.012653708 0.07372686 -0.014479741
000390 ca c1 bb 3d 5e 42 f9 3d 28 46 c2 bc 50 46 8f bd
       0.09167822 0.12170862 -0.023715094 -0.06995833
0003a0 b0 d5 03 bd c2 52 e4 3d 58 a9 e4 bd 60 0b 09 3d
       -0.03218621 0.11148597 -0.11165112 0.033458114
0003b0 98 3f 21 3d 0e d4 83 3d 68 34 cb bd fc eb a0 3d
       0.03936729 0.064369306 -0.09922105 0.078575104
0003c0 50 64 f8 3c e0 f8 7d bd 1a 6c de bd 10 a0 55 3c
       0.03032127 -0.062004924 -0.108604625 0.01303865
0003d0 b8 57 d7 3d e4 9d e0 3d 70 a1 37 3d 4c f0 e4 3d
       0.10514778 0.10967615 0.044831693 0.111786455
0003e0 a0 03 ab 3d e0 e4 f0 3c 90 a4 ef bc 8a 10 89 3d
       0.08350301 0.029406011 -0.029253274 0.06692608
0003f0 42 8e fd 3d 78 15 bc bd 68 27 07 bd 40 98 71 bc
       0.12380649 -0.09183782 -0.032996565 -0.014745772

bias_ih_l0 f4 [192]
000000 f8 08 ad 3d 02 a6 db 3d b8 0d 25 bd a8 3f ff bd
       0.08448976 0.10725023 -0.040296286 -0.12463313
000010 0c 95 6a 3d a4 8c d1 bd 84 f2 ba 3d d4 b8 bf bd
       0.05727105 -0.10231903 0.091282874 -0.09361425
000020 10 76 78 bd 2c 68 2b bd cc 70 d6 bd 7a 63 82 3d
       -0.06065947 -0.041847393 -0.10470733 0.0636663
000030 24 5a db 3d 78 5d 18 bd b8 31 8e bc f4 a7 88 3d
       0.10710552 -0.037198514 -0.017357692 0.066726595
000040 66 34 a8 3d ac e7 59 3d e8 75 89 bc 68 88 87 bd
       0.08213119 0.053199455 -0.016779855 -0.06617814
000050 70 cd 10 bc 68 a3 30 bd 00 49 73 bc 78 9f cd 3c
       -0.008838043 -0.043124586 -0.0148489475 0.025100455
000060 c6 6d f9 bd 54 0f 2d 3d 7e f3 dd bd 98 88 55 bd
       -0.12179141 0.042250946 -0.10837458 -0.05213222
000070 68 d0 ee 3d 84 0f 3d bd ca ee af bd 02 19 81 bd
       0.11660844 -0.046157375 -0.08590467 -0.06303598
000080 c0 ef 98 bc 22 15 87 3d a0 fb 1d bd 18 58 27 3d
       -0.01866901 0.06595828 -0.038570046 0.040855497
000090 24 8b ed bd f4 5f fa bd d0 62 d4 3c a8 3b d9 bc
       -0.115988046 -0.12225333 0.025926024 -0.026517704
0000a0 78 e3 ba 3d ae fc ef 3d c0 7b 70 3b 98 29 ed 3d
       0.091254175 0.11718117 0.0036694854 0.11580199
0000b0 f8 62 90 3c 42 62 86 bd 60 6d ad bd 38 1f c2 3c
       0.017625317 -0.0656171 -0.08468127 0.023696527
0000c0 c6 0f aa bd 88 40 c6 bc 52 7a 83 bd da 58 cc 3d
       -0.0830379 -0.024200693 -0.06419815 0.099778846
0000d0 e0 d6 cc bc e0 e1 96 3d 38 85 80 bc 4e 94 dc bd
       -0.025004804 0.07367301 -0.015688524 -0.107704744
0000e0 00 28 cb 38 22 eb a3 3d 24 4f e1 3d 98 6a f6 bc
       9.687245e-05 0.080038324 0.11001423 -0.030080125
0000f0 28 ae 0d bd 58 96 72 3d 76 12 f4 3d f8 0f 4e bd
       -0.034589916 0.05922541 0.11917584 -0.050308198
000100 ca 5e a3 3d 48 4d 33 bd b4 9d c5 3d ee f3 f7 bd
       0.07977064 -0.043774873 0.0964922 -0.12107073
000110 60 d5 24 bd 64 23 aa 3d 08 ae cc 3c d8 a4 81 3c
       -0.040242553 0.083075315 0.024985328 0.015825674
000120 3a 44 96 bd 00 54 16 ba a8 b3 43 3d 4c 61 38 bd
       -0.07337232 -0.0005734563 0.047778755 -0.045014665
000130 98 d2 81 3d f4 71 8d bd f0 06 1a 3c 60 a6 d9 bd
       0.06338996 -0.069065005 0.009401068 -0.10627437
000140 a0 f5 a7 bb 68 c8 85 3d 50 5c ce 3d 5e 99 cc 3d
       -0.0051257163 0.06532365 0.10076201 0.0999019
000150 10 37 77 3c 7c 0a 77 3d 08 da 94 bc 10 ee dd 3c
       0.0150888115 0.060312733 -0.018170372 0.027091056
000160 00 f8 6f 3a 9c 7c 97 3d 18 ee da 3d 90 fc e0 3d
       0.00091540813 0.07396814 0.10689944 0.109856725
000170 60 64 48 3d 98 83 f6 3c e6 97 8c bd ee ee f9 bd
       0.04892385 0.030092046 -0.0686491 -0.12203775
000180 cc 7c c8 3d e0 22 62 bc 6e 13 de bd 52 8f e8 3d
       0.09789428 -0.01380226 -0.1084355 0.11355461
000190 48 5a 0c bd 3a 55 eb bd 20 b4 40 3c 70 2c 3b bc
       -0.034265786 -0.11490865 0.011761695 -0.011424169
0001a0 a0 68 34 3d a4 16 2e bd 94 82 ad bd 90 55 3c 3d
       0.04404509 -0.04250206 -0.084721714 0.045980036
0001b0 98 e5 b5 3d c4 30 d3 3d 48 44 e8 bd 00 d7 03 3c
       0.08881682 0.10312036 -0.113411486 0.008046865
0001c0 cc fb 4d bd 20 89 f1 3c a0 02 a7 bb 28 59 55 3d
       -0.05028896 0.029484332 -0.0050967485 0.05208698
0001d0 3c fd 51 3d ac 9d ac bd c8 6b bf 3d 4c 1b f8 3d
       0.051266894 -0.08428511 0.093467295 0.121145815
0001e0 c0 eb b6 3b aa e4 c2 bd b0 8e 7a bc c0 d0 0c 3b
       0.005582303 -0.095162705 -0.015292808 0.002148673
0001f0 40 53 19 bc dc 93 a0 bd 44 72 7c 3d bc 5c 8e 3d
       -0.009358227 -0.07840702 0.06163241 0.069512814
000200 74 95 ad 3d 4c bd 88 3d 50 35 79 3d a2 3d f0 3d
       0.084757715 0.066767305 0.06084186 0.117305055
000210 4c 3f 23 bd e0 09 f4 bb 80 bb 4f bd 38 ba 66 bd
       -0.039855286 -0.0074474663 -0.050715923 -0.056329936
000220 7a 36 bd 3d f8 5d 8e bd 46 e2 a8 3d 54 4a d3 bd
       0.09238906 -0.06951517 0.08246283 -0.10316911
000230 66 f9 95 3d 06 75 cc 3d b2 20 db bd 68 41 f5 3d
       0.073229596 0.09983258 -0.106995955 0.11975366
000240 ca 02 b3 bd ac 05 48 bd ce 35 8e 3d 8c 7f e9 bd
       -0.08740766 -0.048833534 0.06943856 -0.11401281
000250 60 bd 9c bb 24 9c c6 3d c0 c5 55 3b 1c 94 d6 bd
       -0.0047833174 0.0969775 0.003261909 -0.10477468
000260 78 96 c9 3c 02 fd ba bd 64 2a 78 3d 6c 82 b2 3d
       0.024607882 -0.09130289 0.0605873 0.08716282
000270 64 2a f5 bd 40 20 dd 3d a0 ab 64 bd 00 02 bb ba
       -0.11970976 0.10797167 -0.055827737 -0.0014267564
000280 08 e8 ec 3d 08 9e 11 bd 40 9d 38 3d d2 ca b1 3d
       0.11567694 -0.0355511 0.04507184 0.08681263
000290 3a 76 80 bd a4 bf fe 3d f8 e1 ca bd ee 13 c6 3d
       -0.0627255 0.12438896 -0.09906381 0.0967177
0002a0 ae c5 b3 3d 14 bc e4 bd 90 bf fe 3c 64 71 79 3d
       0.08777939 -0.111686856 0.031097203 0.060899153
0002b0 50 d0 dc 3d e0 56 8c 3c 30 2b 7b bc 10 87 5f bc
       0.1078192 0.017131269 -0.015330121 -0.013643041
0002c0 9c d7 b0 bd c0 69 a4 bc 68 82 eb bc 8a f0 f9 bd
       -0.08634874 -0.020069957 -0.028748706 -0.12204082
0002d0 b8 30 d6 3d e8 2d d6 bc 00 b0 b3 3c de 49 b8 bd
       0.10458511 -0.026144937 0.02193451 -0.08998464
0002e0 b4 2b 69 3d 00 91 1c ba 9a 0e b8 3d 12 ed 88 3d
       0.056926444 -0.00059725344 0.0898716 0.066858426
0002f0 d0 45 78 bd 10 73 bf 3d d0 6f 8f 3c f0 d1 f7 3c
       -0.060613453 0.09348118 0.017509371 0.030251473

bias_hh_l0 f4 [192]
000000 4c 17 2a 3d 40 a4 64 3c d0 ce 17 3c 16 6a 8c 3d
       0.041526124 0.013955176 0.009265617 0.06856172
000010 8c 27 74 bd c2 61 e4 bd c8 80 d5 3c d0 e4 fb 3d
       -0.059608027 -0.11151458 0.026062384 0.12299502
000020 00 4c e6 bb d4 0c 90 3d 8c 4a 5a bd e0 6b 68 3d
       -0.007028103 0.07033697 -0.05329375 0.056743503
000030 14 06 17 3d 00 8a c5 3d e6 c2 d9 bd 90 50 66 bc
       0.03687103 0.09645462 -0.10632877 -0.0140572935
000040 b0 45 fe bc b6 2b dc 3d 00 f9 00 bb f0 d8 29 bd
       -0.031039089 0.10750525 -0.0019679666 -0.041466653
000050 5e a9 a5 3d 9c 0c f1 bd 16 f7 9a bd 60 cb 80 bb
       0.08088945 -0.11769983 -0.07566659 -0.003930494
000060 e0 c3 96 3b c0 f3 f1 3d de 1d b4 bd f0 2d a7 3d
       0.004600987 0.1181407 -0.08794759 0.08163059
000070 ae d3 e0 bd 64 9f dc 3d 10 c3 b2 bd cc a9 44 3d
       -0.10977875 0.10772589 -0.087286115 0.048013493
000080 40 fb 62 bd 00 68 09 bc 8c 6d c0 3d 02 5d 9a bd
       -0.055415392 -0.008386612 0.093958944 -0.07537271
000090 20 cd be 3b 68 4d 6b 3d 68 3c 9a bd 18 d6 6e bd
       0.0058227926 0.057446867 -0.07531053 -0.058309644
0000a0 a8 7e c9 bc 32 24 f1 3d 54 d9 b7 bd b0 8a 59 3d
       -0.024596527 0.11774482 -0.08976999 0.05311078
0000b0 3c 69 8f bd 84 fc 28 3d f8 12 a5 bc a0 5d a5 bc
       -0.07002494 0.041256443 -0.020150647 -0.020186245
0000c0 54 7f ba bd 44 fe e4 3d f8 f6 e4 3d aa 88 ec 3d
       -0.09106317 0.1118131 0.11179918 0.11549504
0000d0 50 28 9a 3c e0 1b 11 bc 78 09 e9 3d 50 72 8e 3c
       0.01881805 -0.008856744 0.11378759 0.017388493
0000e0 42 be 97 3d f0 78 98 3c 40 38 2a bd 70 94 5a 3c
       0.07409336 0.018612355 -0.04155755 0.013341054
0000f0 de 9e f9 3d 38 5d b5 3d 80 6f ce 3a 08 47 bc bd
       0.12188505 0.08855671 0.0015749782 -0.09193236
000100 ec a5 b8 bd 0c ad 90 3d 00 19 85 bb c6 f9 d9 3d
       -0.09016022 0.07064256 -0.004061818 0.106433436
000110 52 a3 be bd fa 5e 99 bd 1e 21 bd bd d0 83 60 bd
       -0.09308495 -0.074888185 -0.09234832 -0.054813206
000120 48 2d d0 bd f4 2d 04 bd 60 47 25 bd 08 6d 96 bd
       -0.10164887 -0.032270387 -0.04035127 -0.07345015
000130 90 c2 3b bc f4 75 3a bd ac 76 dc 3d 40 a7 cb 3d
       -0.0114599615 -0.045522645 0.10764822 0.0994401
000140 d2 c2 e5 bd bc 0f f3 bd 4c 2c 7d bd f4 d3 39 3d
       -0.112188 -0.118682355 -0.061809823 0.04536815
000150 0e 01 c7 bd 28 e7 e1 3d 80 c5 a4 3d 34 02 6f bd
       -0.09716998 0.11030418 0.08045483 -0.05835171
000160 ce a9 84 3d 3e 52 8a 3d ce 5a a9 3d 00 71 78 3c
       0.064777 0.06753968 0.08269273 0.01516366
000170 40 dc 2f bc ac 81 87 3d b8 b9 ec 3d d6 bc e7 3d
       -0.010733664 0.0661653 0.115588605 0.113153145
000180 a4 d9 ac bd e4 ad ea 3d 04 07 85 bd 94 70 18 bd
       -0.08439949 0.11458948 -0.06495479 -0.037216738
000190 92 18 c2 3d a8 12 e9 bd 08 b9 f9 bc 6a 78 e4 3d
       0.09477343 -0.113805115 -0.030483738 0.1115578
0001a0 e2 4d ec bd b0 8d 72 bc 40 41 8f bb 7e 91 fe bd
       -0.115382925 -0.014804289 -0.004371792 -0.12430094
0001b0 90 a3 60 3d 88 d3 cc bc 30 e6 72 bd 08 18 4a bd
       0.054843485 -0.02500321 -0.059301555 -0.049339324
0001c0 5c c6 12 3d ec 70 60 bd 4c dc 5f 3d 08 91 c4 bc
       0.0358337 -0.05479519 0.05465345 -0.023994938
0001d0 fe aa d1 bd a0 28 84 bb d8 47 de bd 2c 5f 15 3d
       -0.10237692 -0.004033163 -0.10853547 0.036467716
0001e0 b4 1f 50 3d f4 9c fa bd 92 45 aa bd 10 e7 a4 3d
       0.050811484 -0.12236968 -0.08314051 0.08051884
0001f0 04 d4 fe 3d e8 fe 51 3d 78 7d 71 bd 24 6b 95 bd
       0.124427825 0.05126849 -0.058957547 -0.07295826
000200 de 62 94 3d 1e 29 9e 3d 94 ee c2 3d 60 8b b6 3d
       0.0724542 0.07722686 0.095181614 0.089133024
000210 b8 e5 65 3d 50 eb d6 3c c0 bb bf 3c 20 b6 f9 bb
       0.05612728 0.026235253 0.023404956 -0.007620588
000220 52 5f 83 3d a0 3b a6 3c d0 39 fd 3c 4c 7b d0 3d
       0.06414665 0.020292103 0.030911356 0.10179767
000230 a4 36 fc 3d 00 e3 9f 3a 42 22 d6 3d f8 32 8b 3c
       0.12315109 0.0012198389 0.10455753 0.016992077
000240 80 0b 73 3c 58 8a de 3c e2 d6 94 3d ca 17 99 bd
       0.014834285 0.027165577 0.07267548 -0.074752405
000250 70 91 46 3c 94 23 a9 3d aa db f4 bd e4 cf 92 3d
       0.012119636 0.08258739 -0.1195596 0.07168558
000260 e8 1a 9a 3d e8 b8 c3 3d b0 19 cd 3c a0 3c 3f 3d
       0.07524663 0.095567524 0.025036663 0.046688676
000270 6a 51 a1 3d 8a 0b e6 3d a4 df 8a bd 08 65 a8 bd
       0.078768566 0.1123267 -0.06780937 -0.08222395
000280 fc f6 da bd 40 be fb 3d da 8c ee 3d 60 a1 bc bd
       -0.1069164 0.12292147 0.11647959 -0.09210467
000290 b2 c5 e8 3d 76 dd 9a 3d f0 71 d5 3c d0 61 4d bd
       0.113658324 0.075617716 0.026055306 -0.05014211
0002a0 5c 7d fa bd d4 a7 87 bd 5e e3 c8 3d ec d2 e4 bd
       -0.12230942 -0.066238075 0.09808992 -0.11173043
0002b0 80 4e f5 bc c0 23 d9 3b 7a 27 a9 bd 20 72 42 3d
       -0.029944658 0.006626576 -0.08259483 0.04747212
0002c0 78 a5 90 3c d0 39 26 3c 10 80 32 bd 9c f4 96 bd
       0.017657027 0.0101456195 -0.04357916 -0.07370874
0002d0 66 70 98 bd 32 ff f3 3d 40 a3 a7 3b a6 0f d8 bd
       -0.07443313 0.11913909 0.0051158965 -0.1054986
0002e0 00 6b 8d 3b 98 e6 f7 3d 96 81 ff 3d 80 1c 52 bc
       0.004315734 0.12104529 0.124758884 -0.012824178
0002f0 ba b5 90 bd 68 99 72 bd 84 20 db 3d 60 11 0a bd
       -0.070659116 -0.05922833 0.10699561 -0.033707976

weight f4 [1, 64]
000000 70 ab 04 bc c0 f2 30 3c 70 cc b6 bd ec 3a d7 bd
       -0.0080975145 0.010800064 -0.08925712 -0.10509285
000010 22 14 c4 3d 52 5b ab 3d de 6e b1 bd 20 b4 8e 3d
       0.095741525 0.08367027 -0.08663724 0.0696795
000020 40 59 ef 3d c0 e6 4f bb ec 4d 49 bd 92 48 ef 3d
       0.11686945 -0.003172323 -0.049146578 0.116837636
000030 00 0a ad 39 10 6f 3c bc 2a 72 dd 3d bc 88 c0 bd
       0.00033004582 -0.011501089 0.10812791 -0.0940108
000040 98 fa 45 3d 04 d3 c4 bd 40 d7 c1 3d 50 e7 a6 bc
       0.048334688 -0.096105605 0.09464884 -0.02037397
000050 ee ee 88 bd 10 8f 32 bc e0 ec 9e bd 68 96 5b 3d
       -0.06686197 -0.010898367 -0.07760024 0.053610235
000060 d6 b6 ec 3d b4 35 21 bd 00 34 de 3d a0 6d a5 3b
       0.11558311 -0.039357856 0.10849762 0.0050484687
000070 d0 89 08 3c 08 e0 fb bc 04 8e c6 3d f0 ea 3e 3d
       0.008333638 -0.030746475 0.09695056 0.046610773
000080 90 72 e7 3c 52 d9 e8 3d d6 a9 b4 bd 32 13 a4 bd
       0.02825287 0.113695756 -0.08821456 -0.08011474
000090 64 f3 e4 3d 2a 55 c6 3d 14 13 3d 3d e4 84 92 3d
       0.111792356 0.096842125 0.046160772 0.07154253
0000a0 00 bb 08 bd e4 f6 06 bd c2 e9 b9 3d 70 0b 65 bc
       -0.033381462 -0.032950297 0.09077789 -0.013979778
0000b0 a6 f6 8d 3d 64 19 b2 3d 20 54 cd bc 0e d7 b6 3d
       0.0693181 0.08696249 -0.025064528 0.08927737
0000c0 70 27 ed 3d e0 fd b9 3b b0 14 ff 3c 70 fd dc bd
       0.11579788 0.005676016 0.031137794 -0.10790527
0000d0 00 4f 6d bd 98 34 7e bd 58 23 ff bc 00 43 31 3c
       -0.05793667 -0.062061876 -0.031144783 0.010819197
0000e0 88 2b 1c 3d 98 24 fd 3d 70 03 6d bc da 66 bd bd
       0.038127452 0.12360495 -0.014466152 -0.09248133
0000f0 90 26 1f bc 9c 93 d4 bd 30 d2 60 bd 10 16 62 3c
       -0.009713784 -0.10379717 -0.05488795 0.013799205
