Models/VAD/W2V2_GRU/model.pth (torch, 643735 bytes, 5 tensors)

weight_ih_l0 f4 [192, 768]
-0.0009358525 0.06705545 -0.10288064 -0.09199238 -0.048144296 0.03351967 -0.0024766475 0.099111184
-0.011093006 0.03307657 -0.037776634 -0.024570674 -0.11941856 -0.08278526 -0.051527888 0.0046304464
0.0494169 0.07500285 -0.084742635 -0.054432854 0.04540214 0.103798494 -0.025725022 0.09353897
-0.02014792 0.013226762 0.11318453 -0.115958795 -0.07869224 -0.031645656 -0.048724994 0.1080001
-0.08102246 -0.05754161 -0.08733006 -0.11707012 -0.07296756 0.107449755 0.055777296 0.06058407
0.0065739453 -0.06408544 0.021148086 -0.11671184 -0.09032078 -0.06444125 0.07886724 0.073290154
-0.05543688 -0.0045102984 0.07994509 0.12426664 0.049610272 0.016886607 0.08381079 -0.07360029
0.023293003 -0.09691319 -0.08663577 -0.064572945 0.05655913 0.05027005 -0.07404406 0.037763387
0.0686215 -0.01577717 0.004772693 0.028963089 0.07754707 0.120024264 -0.096327946 -0.045808718
0.049126238 0.10356867 0.10877591 0.110294595 0.024876818 -0.10869783 0.011499062 -0.07820067
-0.11649427 0.11106156 0.09504497 -0.124690995 0.023396507 -0.021057501 -0.020570144 -0.05721961
0.04806952 -0.07403794 0.045823917 0.06321351 0.08948395 0.046738893 -0.123716906 -0.08108711
0.062414378 0.026162669 -0.0975105 -0.07197744 0.11759366 0.084227234 -0.054503143 -0.031460598
-0.11907476 -0.0022467673 -0.094132364 -0.09641959 -0.006887451 0.018768132 -0.051191285 0.0741722
-0.07606739 0.11342126 0.085662484 -0.10541037 -0.03111054 0.005640328 0.018237635 0.029646784
0.049053535 0.0074875206 -0.060991094 0.059148625 -0.11990611 -0.074088335 -0.03129123 -0.06088917
-0.04372917 -0.10245271 -0.026589394 0.026719555 -0.08143322 -0.00641492 0.089481354 -0.012850031
0.003474027 -0.010783613 0.025297672 0.07947993 0.118405774 0.07938199 0.11867669 -0.009040207
-0.11229019 -0.059259653 0.08511315 -0.00081031024 -0.062130794 -0.09578897 -0.11698151 -0.105501026
-0.025354594 0.06855075 0.06758013 -0.120553985 0.077972755 -0.09781368 -0.026426286 -0.05068408
-0.024076909 -0.024542838 -0.112168744 -0.10792974 -0.019559935 0.0016165227 -0.05678436 0.0470874
-0.1125073 -0.008435905 0.10992743 -0.0509865 0.11287539 0.04526922 -0.11280762 0.07908717
-0.014424309 -0.055800855 0.09995666 -0.1010119 0.013413116 -0.026171088 0.08926408 0.034893066
0.06006317 0.04414487 -0.030059338 -0.026288182 -0.10301018 0.067730516 0.09924726 0.085528105
-0.08817229 0.0055749863 -0.088116765 -0.06881052 -0.07283819 0.042718127 -0.07448915 -0.002727151
0.0052585155 0.08057788 -0.09449001 -0.08581403 -0.07258269 0.087491676 -0.044933125 0.10543609
0.045200944 0.015828252 -0.000930503 -0.024710193 0.015683293 -0.028543085 -0.00087830424 0.01594913
-0.09777564 -0.06551643 0.10093659 -0.101443335 -0.008975774 0.12365484 0.04515463 0.00353913
-0.10832624 0.061922237 -0.089035094 -0.035483032 -0.04193954 -0.018510923 0.0013672858 0.10310094
0.015604854 0.1119616 0.07646406 -0.079026744 0.05606301 -0.08836201 -0.052978143 0.036765337
0.04127401 0.093778506 -0.040239483 0.0002001077 0.064352944 -0.12088652 0.09037258 -0.1033653
0.0017228127 -0.021252096 -0.06583412 0.01652138 0.10336484 -0.036539942 -0.07421176 -0.046229854
00000000: 0054 75ba 5e54 893d 16b3 d2bd 8066 bcbd
00000010: f432 45bd ec4b 093d 404f 22bb cefa ca3d
00000020: 70bf 35bc 4c7b 073d acbb 1abd 7048 c9bc
00000030: b891 f4bd 528b a9bd e80e 53bd 00bb 973b
00000040: 6069 4a3d 189b 993d 8c8d adbd fcf4 5ebd
00000050: 98f7 393d 4e94 d43d 48bd d2bc 5c91 bf3d
00000060: 400d a5bc 10b5 583c 4acd e73d ce7b edbd
00000070: 6629 a1bd e09e 01bd dc93 47bd 282f dd3d
00000080: 1aef a5bd c0b0 6bbd 1ada b2bd 76c2 efbd
00000090: 0470 95bd 9e0e dc3d bc76 643d 0027 783d
000000a0: 406a d73b 3a3f 83bd c03e ad3c 9e06 efbd
000000b0: 1afa b8bd c6f9 83bd 2685 a13d 2619 963d
000000c0: c811 63bd 20cb 93bb 40ba a33d 827f fe3d
000000d0: 2434 4b3d c855 8a3c fea4 ab3d c0bb 96bd
000000e0: f8d0 be3c 6c7a c6bd 186e b1bd d23e 84bd
000000f0: 8caa 673d f8e7 4d3d 6aa4 97bd c8ad 1a3d
00000100: 6e89 8c3d 203f 81bc 4064 9c3b 0044 ed3c
00000110: 00d1 9e3d 48cf f53d 9647 c5bd eca1 3bbd
00000120: 9838 493d d01b d43d e8c5 de3d 22e2 e13d
00000130: 78ca cb3c f89c debd 9066 3c3c ac27 a0bd
00000140: 8c94 eebd 3e74 e33d f0a6 c23d fe5d ffbd
00000150: 08aa bf3c c880 acbc b882 a8bc 1c5f 6abd
00000160: 8ce4 443d 34a1 97bd dcb1 3b3d 1676 813d
00000170: 5c43 b73d 4871 3f3d 4a5f fdbd 0011 a6bd
00000180: 38a6 7f3d 1853 d63c 96b3 c7bd e868 93bd
00000190: f2d4 f03d 547f ac3d b03e 5fbd d4dc 00bd
000001a0: 78dd f3bd 803e 13bb 78c8 c0bd a277 c5bd
000001b0: 20b0 e1bb a0bf 993c f4ad 51bd 98e7 973d
000001c0: 38c9 9bbd 6849 e83d d06f af3d 64e1 d7bd
000001d0: 88db febc 80d2 b83b 1867 953c d0dd f23c
000001e0: 5cec 483d e059 f53b ccd1 79bd d445 723d
000001f0: 5691 f5bd a0bb 97bd 3c2b 00bd ec66 79bd
00000200: 5c1d 33bd bad2 d1bd 00d2 d9bc f8e2 da3c
00000210: 76c6 a6bd 4034 d2bb 0042 b73d f088 52bc
00000220: 80ac 633b c0ad 30bc 103d cf3c 60c6 a23d
00000230: ba7e f23d 0693 a23d c40c f33d 601d 14bc
00000240: 66f8 e5bd 40ba 72bd ce4f ae3d 006b 54ba
00000250: dc7c 7ebd 022d c4bd 0094 efbd ec10 d8bd
00000260: 70b4 cfbc 5664 8c3d 7467 8a3d 02e5 f6bd
00000270: 2eb0 9f3d 8a52 c8bd f07b d8bc 1c9a 4fbd
00000280: f03c c5bc 100e c9bc bab8 e5bd 440a ddbd
00000290: 283c a0bc 80e1 d33a b896 68bd b8de 403d
000002a0: 3a6a e6bd c036 0abc a221 e13d 38d7 50bd
000002b0: 362b e73d 386c 393d ae07 e7bd 74f8 a13d
000002c0: f053 6cbc 708f 64bd 14b6 cc3d 54df cebd
000002d0: b0c2 5b3c c064 d6bc 16d0 b63d 08ec 0e3d
000002e0: cc04 763d 40d1 343d 003f f6bc 505a d7bc
000002f0: 00f7 d2bd 4cb6 8a3d 2642 cb3d 5c29 af3d
00000300: ac93 b4bd 60ae b63b 9076 b4bd 88ec 8cbd
00000310: 302c 95bd 34f9 2e3d c48d 98bd 00ba 32bb
00000320: a04f ac3b 0406 a53d fa83 c1bd 44bf afbd
00000330: 3ca6 94bd d62e b33d cc0b 38bd e0ee d73d
00000340: a024 393d 40aa 813c 00ed 73ba 086d cabc
00000350: 407a 803c 30d3 e9bc 003e 66ba c0a7 823c
00000360: 983e c8bd 7a2d 86bd d8b7 ce3d 86c1 cfbd
00000370: 200f 13bc c03e fd3d 10f4 383d c0f0 673b
00000380: 26da ddbd 2ca2 7d3d 0858 b6bd a856 11bd
00000390: ccc8 2bbd 38a4 97bc 8036 b33a 9626 d33d
000003a0: 80ab 7f3c 204c e53d 3099 9c3d c6d8 a1bd
000003b0: 54a2 653d 24f7 b4bd 9cff 58bd 4097 163d
000003c0: f00e 293d f20e c03d 28d2 24bd 00d4 5139
000003d0: 7acb 833d 5a93 f7bd 4215 b93d 30b1 d3bd
000003e0: 00d0 e13a e018 aebc 0ad4 86bd d857 873c
000003f0: f2b0 d33d e8aa 15bd 56fc 97bd 845b 3dbd

weight_hh_l0 f4 [192, 64]
0.08458696 0.07749966 0.018763557 0.00045783818 -0.008060351 -0.077248886 0.121017456 0.094482586
-0.10507755 0.016422287 -0.12071046 -0.0015436262 -0.10159345 0.059858993 -0.090623304 0.026521385
-0.046827674 0.110915706 0.110953495 -0.04631269 0.12205841 0.106085226 -0.07065715 -0.10729249
0.04550375 -0.012407362 0.011115238 0.007970139 -0.0034456104 -0.1239911 -0.03921531 0.029784292
-0.11410537 0.122999 -0.08530137 -0.029042006 0.04634066 0.07976225 0.08376673 0.057308838
-0.06523897 0.07242797 -0.113166794 0.013866827 -0.041347876 -0.09123358 -0.035374597 0.06389508
-0.049678028 0.10430594 -0.07392998 0.09830506 0.051373586 -0.041858643 0.0306824 -0.07011236
0.12334815 -0.06492405 0.10791293 -0.05144152 -0.12360284 -0.03768617 -0.06014757 -0.02164872
0.039050534 -0.06186135 0.09638901 -0.058652595 0.014447406 0.05362773 0.077552706 0.095989585
0.085882336 -0.013992965 -0.08894041 -0.032276228 0.08094272 -0.032967284 0.019038588 0.0642056
-0.09577136 -0.11772303 -0.043768615 -0.060752288 -0.09399207 -0.10330039 -0.12060498 0.09945698
0.0740093 0.07603967 -0.09646934 0.08280161 -0.0325713 -0.0701668 0.05945587 -0.0068166703
-0.041436702 0.09776385 -0.054408252 -0.042794853 -0.02336225 0.10105008 -0.06038347 -0.10503578
-0.048863366 -0.07574695 0.09488545 -0.07405381 -0.10206686 0.11236715 -0.033654824 -0.06425175
-0.084979355 0.11721672 -0.095141634 -9.4398856e-05 0.109931305 -0.058950633 0.12132098 0.087098
0.10691494 -0.031886265 0.061502054 -0.04350491 0.01046592 -0.05559455 -0.101926655 0.07982847
0.08258322 -0.10879886 -0.0546754 0.053102463 0.115572155 -0.0147264 0.09758605 -0.08386506
-0.10189277 -0.06652053 -0.023008049 0.11556433 0.030465603 -0.029595539 0.055114076 -0.060145736
-0.09736912 -0.02514349 -0.00072063506 0.12399413 -0.028914005 -0.05497086 -0.018895388 0.027079463
-0.10296734 0.09814295 0.05947244 0.03394182 0.0048969537 0.1150606 -0.08837703 -0.07281877
0.06253441 -0.09593871 -0.08254108 0.04653372 -0.051200688 -0.011877745 -0.008391455 -0.022996724
0.09478423 0.00027509034 -0.019097552 0.064585894 0.022050068 -0.045983285 0.043752134 0.0054429173
-0.09716301 -0.114206806 -0.020609513 0.06921229 0.0497988 -0.013116956 -0.07402919 -0.10318002
0.026646897 0.012569293 -0.031688124 -0.0047828406 0.041565716 -0.09690012 0.09435804 0.015045539
0.060630992 0.030174643 0.035889536 0.09081374 0.035067394 -0.02282013 -0.040305123 -0.03775625
0.113608986 -0.041747153 -0.10434137 0.09072217 -0.058286726 0.084176525 -0.053897515 0.11553067
-0.08431174 -0.012795135 -0.08945854 -0.011651441 0.11269675 -0.10346039 -0.08890435 -0.06519237
0.092761174 -0.08570933 -0.08096443 0.09403424 0.11884107 0.114096195 -0.038755566 -0.036961302
-0.012378171 -0.118336916 -0.08499734 -0.087671176 0.041595608 -0.07333566 0.059120983 0.051175386
-0.08380811 0.10877761 -0.04881446 -0.06493877 -0.07355103 0.10490385 -0.09394252 -0.091156974
-0.061801836 -0.022828206 -0.093095124 0.026008233 0.015693024 0.06139545 0.062306374 -0.050654337
-0.05888322 -0.009867027 -0.11329131 0.028074548 -0.078478426 0.039818972 0.020196602 0.09857109
00000000: ee3b ad3d 24b8 9e3d 08b6 993c 000a f039
00000010: 900f 04bc aa34 9ebd 00d8 f73d 1680 c13d
00000020: e632 d7bd 0888 863c 0c37 f7bd 8053 caba
00000030: 3a10 d0bd b42e 753d b698 b9bd 6043 d93c
00000040: 60ce 3fbd c627 e33d 963b e33d 60b2 3dbd
00000050: c2f9 f93d 3643 d93d b2b4 90bd 2abc dbbd
00000060: 2462 3a3d 4048 4bbc b01c 363c 3095 023c
00000070: c0cf 61bb 0cef fdbd 3ca0 20bd 30fe f33c
00000080: 14b0 e9bd e6e6 fb3d 7cb2 aebd 80e9 edbc
00000090: b4cf 3d3d 645a a33d e48d ab3d acbc 6a3d
000000a0: 029c 85bd 1e55 943d fec3 e7bd b031 633c
000000b0: 645c 29bd acd8 babd f4e4 10bd 6cdb 823d
000000c0: 307b 4bbd 5a9e d53d 9a68 97bd 2a54 c93d
000000d0: 1c6d 523d f873 2bbd a859 fb3c 1297 8fbd
000000e0: f49d fc3d e6f6 84bd 7401 dd3d 58b4 52bd
000000f0: 7c23 fdbd d05c 1abd 4c5d 76bd a858 b1bc
00000100: 74f3 1f3d 5462 7dbd 9a67 c53d b43d 70bd
00000110: d0b4 6c3c c0a8 5b3d f4d3 9e3d 3096 c43d
00000120: 14e3 af3d c042 65bc 6426 b6bd 1434 04bd
00000130: 4cc5 a53d b408 07bd d0f6 9b3c 3a7e 833d
00000140: c623 c4bd c618 f1bd b846 33bd 64d7 78bd
00000150: ea7e c0bd 288f d3bd beff f6bd 1ab0 cb3d
00000160: 3092 973d b0ba 9b3d b891 c5bd e493 a93d
00000170: 7c69 05bd 9cb3 8fbd 0088 733d 605e dfbb
00000180: 88b9 29bd 6a38 c83d 30db 5ebd a849 2fbd
00000190: 3062 bfbc 58f3 ce3d a854 77bd 001d d7bd
000001a0: f424 48bd 3821 9bbd 4e53 c23d 86a9 97bd
000001b0: 6e08 d1bd c020 e63d a4d9 09bd 6c96 83bd
000001c0: a809 aebd 520f f03d 9ed9 c2bd 00f8 c5b8
000001d0: aa23 e13d 3876 71bd 2277 f83d 7060 b23d
000001e0: 38f6 da3d 2c9b 02bd 94e9 7b3d 3432 32bd
000001f0: 4079 2b3c 1cb7 63bd ecbe d0bd 1c7d a33d
00000200: 6421 a93d f0d1 debd 50f3 5fbd f881 593d
00000210: 18b1 ec3d 0047 71bc 32db c73d 72c1 abbd
00000220: 28ad d0bd ea3b 88bd 607b bcbc feac ec3d
00000230: 0093 f93c 5872 f2bc 4cbf 613d 605b 76bd
00000240: 7669 c7bd b8f9 cdbc 00e9 3cba a2f0 fd3d
00000250: 10dd ecbc 2029 61bd 80ca 9abc c0d5 dd3c
00000260: 8ae0 d2bd 2cff c83d 6099 733d 9406 0b3d
00000270: a076 a03b e4a4 eb3d 04ff b4bd 0222 95bd
00000280: 0a12 803d 847b c4bd 4c0b a9bd 249a 3e3d
00000290: d0b7 51bd e09a 42bc 507c 09bc a063 bcbc
000002a0: 3c1e c23d 003a 9039 7872 9cbc 9c45 843d
000002b0: 58a2 b43c f858 3cbd 7035 333d 805a b23b
000002c0: 66fd c6bd 42e5 e9bd 48d5 a8bc 2cbf 8d3d
000002d0: d4f9 4b3d 80e8 56bc 9e9c 97bd 0c50 d3bd
000002e0: 984a da3c 70ef 4d3c 68cb 01bd 60b9 9cbb
000002f0: d040 2a3d 9273 c6bd ca3e c13d 9081 763c
00000300: 3458 783d d030 f73c e800 133d 8efc b93d
00000310: d4a2 0f3d 48f1 babc fc16 25bd 4ca6 1abd
00000320: d4ab e83d 10ff 2abd eeb0 d5bd 8ccc b93d
00000330: 10be 6ebd be64 ac3d a4c3 5cbd 589b ec3d
00000340: a2ab acbd b0a2 51bc 0a36 b7bd b0e5 3ebc
00000350: 8ecd e63d 0ae3 d3bd 7c13 b6bd 9483 85bd
00000360: 92f9 bd3d 6088 afbd aed0 a5bd 0695 c03d
00000370: f262 f33d 44ab e93d 28be 1ebd bc64 17bd
00000380: d0cd 4abc a05a f2bd 1613 aebd f28c b3bd
00000390: 2860 2a3d 0231 96bd d828 723d 489d 513d
000003a0: 96a3 abbd ccc6 de3d acf1 47bd 9efe 84bd
000003b0: eca1 96bd d4d7 d63d f064 c0bd 82b0 babd
000003c0: ec23 7dbd 3802 bbbc a8a8 bebd 380f d53c
000003d0: a88e 803c cc79 7b3d f834 7f3d ec7a 4fbd
000003e0: 882f 71bd 50a9 21bc 4605 e8bd 98fc e53c
000003f0: 4cb9 a0bd 3819 233d 5873 a53c a4df c93d

bias_ih_l0 f4 [192]
0.019437313 -0.11235589 -0.052790314 0.08566645 -0.005375862 -0.01344052 -0.06743726 -0.018885136
0.029916883 0.04029484 0.0016078651 0.021618515 0.004897639 -0.04228936 -0.020214543 0.0976858
0.110181734 0.04102491 -0.08982603 0.0910943 0.03932312 0.08378577 -0.092655 -0.027830094
0.048614115 0.10730153 0.047005236 -0.06033668 -0.09698093 -0.11206105 -0.085555345 0.008340597
0.1178585 -0.063163444 0.06202157 -0.053694144 0.00038734078 -0.10775077 0.099646285 0.044978306
-0.039917767 -0.027157724 -0.064622805 -0.013061911 -0.114994615 -0.10144539 -0.10078649 0.08530556
0.08120258 -0.045113266 -0.046285897 0.03492841 -0.10737227 0.12142564 0.059944957 0.12105884
0.060197473 -0.09750895 0.06378034 -0.097240776 -0.0064529777 -0.0893781 -0.009875119 -0.056334555
-0.05680202 0.08157824 0.09287612 -0.030712858 0.122932 0.09004016 -0.1049598 -0.020898148
0.019317687 0.049918324 -0.04217495 -0.033706635 0.103362456 0.09401129 -0.05394715 0.0074270368
0.039680526 0.06566645 -0.08093056 0.094599456 -0.00084014237 0.06864126 0.11025019 -0.05074559
-0.019991234 -0.11452246 0.07145645 0.010162905 -0.03180617 -0.069496095 -0.041867957 0.015368059
-0.09766795 0.00504829 -0.068474665 -0.09345576 -0.07379112 -0.032393157 0.12362823 0.09342155
0.042443216 -0.04577169 -0.08169404 -0.01662819 0.123812586 0.071974844 -0.01352036 0.042099938
0.07816768 0.017812565 -0.024129823 7.368624e-05 0.09036194 0.1122213 -0.025617346 -0.069755495
0.06309526 0.028912574 -0.054592 0.11826497 0.036448747 -0.0053526163 -0.06829178 -0.0075334907
-0.07517472 -0.072677806 -0.05391945 0.023857608 0.040937185 -0.08231355 0.07338393 -0.09046237
-0.1224273 0.04495038 0.034078524 -0.029836431 -0.12334703 -0.11275987 0.06137584 0.019978434
0.041409522 -0.05125712 0.08550508 0.009630382 -0.108409 0.044363543 -0.113768816 0.0013623536
-0.09575802 0.0027301759 0.014574707 0.07855274 0.074530184 0.045884356 -0.051219985 0.10419181
0.038337514 -0.04884547 0.05680491 0.08995587 0.014413282 0.07227586 -0.011884838 0.026387885
-0.11828692 -0.123923674 0.023441792 -0.002993077 -0.11955848 -0.049652264 0.11762704 0.09063168
0.028145015 -0.04651141 0.0985657 0.054430544 -0.108909115 0.08854605 -0.07199909 -0.026834399
0.007555723 0.11352426 0.0050313026 0.02037166 0.0717174 0.060779423 -0.039083004 -0.0011675805
00000000: 003b 9f3c d81a e6bd a83a 58bd e471 af3d
00000010: 0028 b0bb a035 5cbc 8c1c 8abd 00b5 9abc
00000020: 4014 f53c 340c 253d 00bf d23a 5019 b13c
00000030: 607c a03b 9c37 2dbd f898 a5bc 7e0f c83d
00000040: f6a6 e13d bc09 283d b6f6 b7bd a68f ba3d
00000050: 4811 213d e097 ab3d e8c1 bdbd f0fb e3bc
00000060: 981f 473d e8c0 db3d 9088 403d 9823 77bd
00000070: f09d c6bd 4480 e5bd a437 afbd 00a7 083c
00000080: cc5f f13d d65b 81bd 540a 7e3d 64ee 5bbd
00000090: 0014 cb39 70ac dcbd 5a13 cc3d 2c3b 383d
000000a0: d080 23bd e079 debc f658 84bd a001 56bc
000000b0: 4c82 ebbd 9ac2 cfbd 2669 cebd aeb4 ae3d
000000c0: 8a4d a63d b0c8 38bd 4896 3dbd 1811 0f3d
000000d0: fee5 dbbd 02ae f83d d888 753d b2ed f73d
000000e0: a091 763d c6b2 c7bd 449f 823d 2c26 c7bd
000000f0: 8073 d3bb de0b b7bd 40cb 21bc 10bf 66bd
00000100: 3ca9 68bd 7e12 a73d d635 be3d 8899 fbbc
00000110: c6c3 fb3d fa66 b83d 2af5 d6bd 9832 abbc
00000120: 2040 9e3c 2877 4c3d a4bf 2cbd f80f 0abd
00000130: b2af d33d fe88 c03d b0f7 5cbd 805e f33b
00000140: 0c88 223d 227c 863d ecbe a5bd 5cbd c13d
00000150: 003d 5cba ca93 8c3d daca e13d 9cda 4fbd
00000160: a8c4 a3bc c08a eabd c257 923d 5082 263c
00000170: 3047 02bd f853 8ebd bc7d 2bbd 50ca 7b3c
00000180: 2206 c8bd 206c a53b 723c 8cbd bc65 bfbd
00000190: cc1f 97bd b0ae 04bd cc30 fd3d cc53 bf3d
000001a0: f0d8 2d3d 187b 3bbd 344f a7bd d837 88bc
000001b0: 7491 fd3d 8c67 933d 8084 5dbc fc70 2c3d
000001c0: 6016 a03d a8eb 913c e8ab c5bc 0088 9a38
000001d0: ae0f b93d 48d4 e53d 78db d1bc f8db 8ebd
000001e0: 1638 813d 10da ec3c dc9b 5fbd e834 f23d
000001f0: 484b 153d 0065 afbb 90dc 8bbd 80db f6bb
00000200: 34f5 99bd 1ad8 94bd a4da 5cbd 0871 c33c
00000210: c0ad 273d 0294 a8bd 504a 963d 5644 b9bd
00000220: 2abb fabd e41d 383d ec95 0b3d 886b f4bc
00000230: 5e9d fcbd a6ee e6bd 3c65 7b3d d0a9 a33c
00000240: 089d 293d fcf2 51bd 4a1d af3d c0c8 1d3c
00000250: 8a05 debd 8cb6 353d a0ff e8bd 0091 b23a
00000260: c81c c4bd c0ec 323b c0ca 6e3c 42e0 a03d
00000270: 48a3 983d 3cf1 3b3d 0ccc 51bd 8462 d53d
00000280: cc07 1d3d 3012 48bd 44ac 683d c83a b83d
00000290: b025 6c3c 5e05 943d a0b8 42bc 682b d83c
000002a0: 6a40 f2bd b2cb fdbd 0009 c03c 8027 44bb
000002b0: 14db f4bd 2c60 4bbd 72e6 f03d 1a9d b93d
000002c0: 6090 e63c c082 3ebd d0dc c93d 90f2 5e3d
000002d0: be0b dfbd a257 b53d 4274 93bd d0d3 dbbc
000002e0: 0096 f73b 687f e83d a0dd a43b 78e2 a63c
000002f0: 92e0 923d d8f3 783d 8015 20bd 8009 99ba

bias_hh_l0 f4 [192]
-0.10176088 0.06371805 -0.09744449 -0.05814053 0.05961919 0.093185365 0.053506568 -0.011112779
-0.013391659 0.06816228 0.0042492 0.10989347 0.08293095 -0.07465193 0.04511802 -0.11929697
-0.10574201 0.03249459 0.12170248 -0.121533215 0.018112287 -0.04975544 -0.069978386 0.021627337
-0.10183285 0.10026872 0.10530822 0.1188923 0.100445285 0.08194244 -0.052653193 0.121999905
0.1058574 -0.07283141 0.045432672 -0.050176695 0.039567024 0.032183766 -0.11103965 -0.028468087
0.01629208 0.08175677 -0.02410154 -0.09505969 0.10620651 0.100903034 -0.016108587 -0.10853736
0.10486646 -0.044080168 0.007813722 -0.09374285 0.021668166 0.042380437 -0.014513925 0.040628046
-0.035222575 0.04313402 0.058879822 0.029025942 0.007308349 0.0714232 -0.043148547 0.084802
0.085192144 0.099569425 -0.011733398 -0.12239413 0.04852763 -0.06031157 -0.102286786 -0.114699334
0.09307334 -0.11662623 0.081016675 0.010140106 -0.04844293 -0.065442026 0.037222043 0.054751754
0.08746959 -0.036639407 -0.049095377 0.050233155 0.07399979 -0.007203102 0.07382311 -0.11918786
0.0052277446 -0.018008724 0.05390042 0.09333946 0.051958635 -0.03176163 -0.021532252 0.060746163
-0.03985946 -0.030832097 0.043183297 0.064246655 0.011130169 -0.009327024 -0.064682275 -0.11680372
0.08840506 0.07636334 0.069337904 0.11083406 0.11133374 -0.07064529 -0.048864648 0.043445855
-0.014128119 0.023692876 0.12243475 0.04451184 -0.030295491 0.018612415 -0.07191844 0.07827222
0.04782921 -0.04360792 0.069119096 -0.052811414 -0.033336803 0.09903671 -0.0429025 -0.06775285
0.078864396 0.067381635 0.09319037 -0.08839318 -0.12123719 -0.08327368 0.08757889 -0.052751794
-0.012873471 -0.079791576 -0.07684755 0.04038535 0.09414652 0.03199929 -0.084549606 0.09796126
-0.08164707 -0.012313008 -0.0026904196 -0.10948454 0.014335081 -0.12346555 0.073644996 0.11353296
-0.039261892 -0.039321914 0.0321064 -0.06302656 0.11711271 0.017637566 0.00053177774 -0.10474506
0.09557046 -0.09450202 -0.11361168 -0.1160589 -0.023568183 -0.07654129 0.08272272 0.09038259
-0.106866375 -0.067593634 0.015202895 -0.013760701 -0.03937359 -0.11198804 0.07502772 -0.038112715
0.0730512 -0.027903065 -0.087860346 -0.12160641 -0.09525266 -0.0217295 -0.0025403798 0.013642833
0.08269441 0.08844066 0.084315434 -0.027355626 -0.08528353 -0.0611396 0.035456896 0.030994028
00000000: 0268 d0bd 9c7e 823d fa90 c7bd c424 6ebd
00000010: 4033 743d f8d7 be3d b429 5b3d 6012 36bc
00000020: b068 5bbc aa98 8b3d e03c 8b3b d40f e13d
00000030: b4d7 a93d 1ce3 98bd accd 383d f851 f4bd
00000040: 448f d8bd 0c19 053d 263f f93d 68e6 f8bd
00000050: 3860 943c 5ccc 4bbd d450 8fbd d02b b13c
00000060: be8d d0bd b059 cd3d d6ab d73d ce7d f33d
00000070: 42b6 cd3d 70d1 a73d e0aa 57bd 16db f93d
00000080: c4cb d83d a228 95bd 9c17 3a3d 1486 4dbd
00000090: 0811 223d 20d3 033d c268 e3bd e835 e9bc
000000a0: f876 853c 1870 a73d 9870 c5bc a8ae c2bd
000000b0: cc82 d93d 40a6 ce3d 28f6 83bc d648 debd
000000c0: 3ac4 d63d 688d 34bd 2005 003c 40fc bfbd
000000d0: 7081 b13c 1c97 2d3d d0cb 6dbc 9869 263d
000000e0: 8c45 10bd 4cad 303d f82b 713d d0c7 ed3c
000000f0: e07a ef3b 5446 923d 88bc 30bd acac ad3d
00000100: 3879 ae3d 0eeb cb3d 703d 40bc c6a9 fabd
00000110: e8c4 463d 4409 77bd bc7b d1bd 7ce7 eabd
00000120: 3c9d be3d bcd9 eebd 12ec a53d b022 263c
00000130: 186c 46bd 7806 86bd 2476 183d 6043 603d
00000140: 4223 b33d 3413 16bd 3c18 49bd 48c1 4d3d
00000150: 348d 973d 0008 ecbb 9230 973d c418 f4bd
00000160: 804d ab3b 0887 93bc b0c6 5c3d c228 bf3d
00000170: 94d2 543d 7c18 02bd 6864 b0bc f8d0 783d
00000180: ac43 23bd 9893 fcbc f8e0 303d c093 833d
00000190: 505b 363c 60d0 18bc 2478 84bd ca36 efbd
000001a0: b60d b53d 6264 9c3d 0801 8e3d f8fc e23d
000001b0: f202 e43d 7aae 90bd 4c26 48bd 48f4 313d
000001c0: a079 67bc 9017 c23c 12bf fa3d 0c52 363d
000001d0: 402e f8bc 1079 983c fa49 93bd 304d a03d
000001e0: 90e8 433d 389e 32bd 508e 8d3d c850 58bd
000001f0: 2c8c 08bd c2d3 ca3d 88ba 2fbd 02c2 8abd
00000200: a883 a13d 62ff 893d 98da be3d 7c07 b5bd
00000210: 344b f8bd 648b aabd 905c b33d 4412 58bd
00000220: 40eb 52bc c469 a3bd 4062 9dbd 1c6b 253d
00000230: e4cf c03d b011 033d 5828 adbd ea9f c83d
00000240: 9436 a7bd 80bc 49bc c051 30bb 6e39 e0bd
00000250: b0dd 6a3c 82db fcbd 30d3 963d f883 e83d
00000260: 14d1 20bd 0410 21bd 0082 033d 1214 81bd
00000270: cad8 ef3d a87c 903c 0067 0b3a 9484 d6bd
00000280: 72ba c33d 468a c1bd 3ead e8bd 4ab0 edbd
00000290: 1012 c1bc aec1 9cbd 886a a93d 821a b93d
000002a0: c2dc dabd 886e 8abd 9015 793c 9074 61bc
000002b0: 3446 21bd fc59 e5bd 22a8 993d 141c 1cbd
000002c0: de9b 953d f894 e4bc 20f0 b3bd c80c f9bd
000002d0: d413 c3bd 1002 b2bc 807c 26bb 3086 5f3c
000002e0: b05b a93d 6020 b53d 92ad ac3d e818 e0bc
000002f0: 22a9 aebd 846d 7abd 403b 113d 30e7 fd3c

weight f4 [1, 64]
-0.047212586 -0.05098474 -0.036682382 -0.05154398 -0.06263293 0.042258337 0.09491032 -0.024773896
-0.04019934 -0.08794834 -0.070096076 0.035504818 0.06871869 -0.11353262 0.06519428 0.11818299
0.05006595 -0.11704704 -0.015623167 0.016766489 0.06349519 -0.06287256 0.11881466 0.084956914
0.10414103 -0.013862804 -0.055008635 -0.07579942 -0.060413733 0.103860974 0.033040702 0.05571586
-0.06407872 -0.055130273 0.03384164 -0.075154796 -0.08874373 0.013150811 0.07484719 0.07712242
-0.006881848 -0.087417394 -0.06620625 0.07247901 -0.029779136 -0.08464427 -0.008837923 -0.061502412
0.042982966 -0.105519965 -0.09373155 -0.12057653 -0.034221366 -0.08101265 0.015061408 0.01426442
-0.080564335 -0.029786274 0.03788224 0.09601812 0.07800734 -0.12048787 0.071990326 0.023017764
00000000: fc61 41bd 60d5 50bd 4440 16bd c81f 53bd
00000010: b245 80bd 1417 2d3d 5860 c23d a0f2 cabc
00000020: 10a8 24bd 421e b4bd 888e 8fbd 806d 113d
00000030: 62bc 8c3d ca83 e8bd 9484 853d ec09 f23d
00000040: f411 4d3d 5cb6 efbd 50f8 7fbc e059 893c
00000050: c409 823d 54c3 80bd 1a55 f33d e4fd ad3d
00000060: e447 d53d d020 63bc bc50 61bd ba3c 9bbd
00000070: 6474 77bd 10b5 d43d b055 073d 5036 643d
00000080: b43b 83bd 48d0 61bd 889d 0a3d c2ea 99bd
00000090: 46bf b5bd 8076 573c 7c49 993d 5cf2 9d3d
000000a0: 2081 e1bb e407 b3bd 2497 87bd e06f 943d
000000b0: 60f3 f3bc fa59 adbd f0cc 10bc f4e9 7bbd
000000c0: e80e 303d da1a d8bd 54f6 bfbd d4f0 f6bd
000000d0: b42b 0cbd f6e9 a5bd 20c4 763c 50b5 693c
000000e0: eafe a4bd 5802 f4bc 682a 1b3d 26a5 c43d
000000f0: 50c2 9f3d 58c2 f6bd aa6f 933d c08f bc3c
