Models/SER/A/multi_GEMEP_RAVDESS_CaFE_EmoDB_wav2vec2-xlsr_GRU-1-64_lr-0.0001/model.pth (torch, 850625 bytes, 12 tensors)

weight_ih_l0 f4 [192, 1024]
-0.0009358525 0.06705545 -0.10288064 -0.09199238 -0.048144296 0.03351967 -0.0024766475 0.099111184
-0.011093006 0.03307657 -0.037776634 -0.024570674 -0.11941856 -0.08278526 -0.051527888 0.0046304464
0.0494169 0.07500285 -0.084742635 -0.054432854 0.04540214 0.103798494 -0.025725022 0.09353897
-0.02014792 0.013226762 0.11318453 -0.115958795 -0.07869224 -0.031645656 -0.048724994 0.1080001
-0.08102246 -0.05754161 -0.08733006 -0.11707012 -0.07296756 0.107449755 0.055777296 0.06058407
0.0065739453 -0.06408544 0.021148086 -0.11671184 -0.09032078 -0.06444125 0.07886724 0.073290154
-0.05543688 -0.0045102984 0.07994509 0.12426664 0.049610272 0.016886607 0.08381079 -0.07360029
0.023293003 -0.09691319 -0.08663577 -0.064572945 0.05655913 0.05027005 -0.07404406 0.037763387
0.0686215 -0.01577717 0.004772693 0.028963089 0.07754707 0.120024264 -0.096327946 -0.045808718
0.049126238 0.10356867 0.10877591 0.110294595 0.024876818 -0.10869783 0.011499062 -0.07820067
-0.11649427 0.11106156 0.09504497 -0.124690995 0.023396507 -0.021057501 -0.020570144 -0.05721961
0.04806952 -0.07403794 0.045823917 0.06321351 0.08948395 0.046738893 -0.123716906 -0.08108711
0.062414378 0.026162669 -0.0975105 -0.07197744 0.11759366 0.084227234 -0.054503143 -0.031460598
-0.11907476 -0.0022467673 -0.094132364 -0.09641959 -0.006887451 0.018768132 -0.051191285 0.0741722
-0.07606739 0.11342126 0.085662484 -0.10541037 -0.03111054 0.005640328 0.018237635 0.029646784
0.049053535 0.0074875206 -0.060991094 0.059148625 -0.11990611 -0.074088335 -0.03129123 -0.06088917
-0.04372917 -0.10245271 -0.026589394 0.026719555 -0.08143322 -0.00641492 0.089481354 -0.012850031
0.003474027 -0.010783613 0.025297672 0.07947993 0.118405774 0.07938199 0.11867669 -0.009040207
-0.11229019 -0.059259653 0.08511315 -0.00081031024 -0.062130794 -0.09578897 -0.11698151 -0.105501026
-0.025354594 0.06855075 0.06758013 -0.120553985 0.077972755 -0.09781368 -0.026426286 -0.05068408
-0.024076909 -0.024542838 -0.112168744 -0.10792974 -0.019559935 0.0016165227 -0.05678436 0.0470874
-0.1125073 -0.008435905 0.10992743 -0.0509865 0.11287539 0.04526922 -0.11280762 0.07908717
-0.014424309 -0.055800855 0.09995666 -0.1010119 0.013413116 -0.026171088 0.08926408 0.034893066
0.06006317 0.04414487 -0.030059338 -0.026288182 -0.10301018 0.067730516 0.09924726 0.085528105
-0.08817229 0.0055749863 -0.088116765 -0.06881052 -0.07283819 0.042718127 -0.07448915 -0.002727151
0.0052585155 0.08057788 -0.09449001 -0.08581403 -0.07258269 0.087491676 -0.044933125 0.10543609
0.045200944 0.015828252 -0.000930503 -0.024710193 0.015683293 -0.028543085 -0.00087830424 0.01594913
-0.09777564 -0.06551643 0.10093659 -0.101443335 -0.008975774 0.12365484 0.04515463 0.00353913
-0.10832624 0.061922237 -0.089035094 -0.035483032 -0.04193954 -0.018510923 0.0013672858 0.10310094
0.015604854 0.1119616 0.07646406 -0.079026744 0.05606301 -0.08836201 -0.052978143 0.036765337
0.04127401 0.093778506 -0.040239483 0.0002001077 0.064352944 -0.12088652 0.09037258 -0.1033653
0.0017228127 -0.021252096 -0.06583412 0.01652138 0.10336484 -0.036539942 -0.07421176 -0.046229854
00000000: 0054 75ba 5e54 893d 16b3 d2bd 8066 bcbd
00000010: f432 45bd ec4b 093d 404f 22bb cefa ca3d
00000020: 70bf 35bc 4c7b 073d acbb 1abd 7048 c9bc
00000030: b891 f4bd 528b a9bd e80e 53bd 00bb 973b
00000040: 6069 4a3d 189b 993d 8c8d adbd fcf4 5ebd
00000050: 98f7 393d 4e94 d43d 48bd d2bc 5c91 bf3d
00000060: 400d a5bc 10b5 583c 4acd e73d ce7b edbd
00000070: 6629 a1bd e09e 01bd dc93 47bd 282f dd3d
00000080: 1aef a5bd c0b0 6bbd 1ada b2bd 76c2 efbd
00000090: 0470 95bd 9e0e dc3d bc76 643d 0027 783d
000000a0: 406a d73b 3a3f 83bd c03e ad3c 9e06 efbd
000000b0: 1afa b8bd c6f9 83bd 2685 a13d 2619 963d
000000c0: c811 63bd 20cb 93bb 40ba a33d 827f fe3d
000000d0: 2434 4b3d c855 8a3c fea4 ab3d c0bb 96bd
000000e0: f8d0 be3c 6c7a c6bd 186e b1bd d23e 84bd
000000f0: 8caa 673d f8e7 4d3d 6aa4 97bd c8ad 1a3d
00000100: 6e89 8c3d 203f 81bc 4064 9c3b 0044 ed3c
00000110: 00d1 9e3d 48cf f53d 9647 c5bd eca1 3bbd
00000120: 9838 493d d01b d43d e8c5 de3d 22e2 e13d
00000130: 78ca cb3c f89c debd 9066 3c3c ac27 a0bd
00000140: 8c94 eebd 3e74 e33d f0a6 c23d fe5d ffbd
00000150: 08aa bf3c c880 acbc b882 a8bc 1c5f 6abd
00000160: 8ce4 443d 34a1 97bd dcb1 3b3d 1676 813d
00000170: 5c43 b73d 4871 3f3d 4a5f fdbd 0011 a6bd
00000180: 38a6 7f3d 1853 d63c 96b3 c7bd e868 93bd
00000190: f2d4 f03d 547f ac3d b03e 5fbd d4dc 00bd
000001a0: 78dd f3bd 803e 13bb 78c8 c0bd a277 c5bd
000001b0: 20b0 e1bb a0bf 993c f4ad 51bd 98e7 973d
000001c0: 38c9 9bbd 6849 e83d d06f af3d 64e1 d7bd
000001d0: 88db febc 80d2 b83b 1867 953c d0dd f23c
000001e0: 5cec 483d e059 f53b ccd1 79bd d445 723d
000001f0: 5691 f5bd a0bb 97bd 3c2b 00bd ec66 79bd
00000200: 5c1d 33bd bad2 d1bd 00d2 d9bc f8e2 da3c
00000210: 76c6 a6bd 4034 d2bb 0042 b73d f088 52bc
00000220: 80ac 633b c0ad 30bc 103d cf3c 60c6 a23d
00000230: ba7e f23d 0693 a23d c40c f33d 601d 14bc
00000240: 66f8 e5bd 40ba 72bd ce4f ae3d 006b 54ba
00000250: dc7c 7ebd 022d c4bd 0094 efbd ec10 d8bd
00000260: 70b4 cfbc 5664 8c3d 7467 8a3d 02e5 f6bd
00000270: 2eb0 9f3d 8a52 c8bd f07b d8bc 1c9a 4fbd
00000280: f03c c5bc 100e c9bc bab8 e5bd 440a ddbd
00000290: 283c a0bc 80e1 d33a b896 68bd b8de 403d
000002a0: 3a6a e6bd c036 0abc a221 e13d 38d7 50bd
000002b0: 362b e73d 386c 393d ae07 e7bd 74f8 a13d
000002c0: f053 6cbc 708f 64bd 14b6 cc3d 54df cebd
000002d0: b0c2 5b3c c064 d6bc 16d0 b63d 08ec 0e3d
000002e0: cc04 763d 40d1 343d 003f f6bc 505a d7bc
000002f0: 00f7 d2bd 4cb6 8a3d 2642 cb3d 5c29 af3d
00000300: ac93 b4bd 60ae b63b 9076 b4bd 88ec 8cbd
00000310: 302c 95bd 34f9 2e3d c48d 98bd 00ba 32bb
00000320: a04f ac3b 0406 a53d fa83 c1bd 44bf afbd
00000330: 3ca6 94bd d62e b33d cc0b 38bd e0ee d73d
00000340: a024 393d 40aa 813c 00ed 73ba 086d cabc
00000350: 407a 803c 30d3 e9bc 003e 66ba c0a7 823c
00000360: 983e c8bd 7a2d 86bd d8b7 ce3d 86c1 cfbd
00000370: 200f 13bc c03e fd3d 10f4 383d c0f0 673b
00000380: 26da ddbd 2ca2 7d3d 0858 b6bd a856 11bd
00000390: ccc8 2bbd 38a4 97bc 8036 b33a 9626 d33d
000003a0: 80ab 7f3c 204c e53d 3099 9c3d c6d8 a1bd
000003b0: 54a2 653d 24f7 b4bd 9cff 58bd 4097 163d
000003c0: f00e 293d f20e c03d 28d2 24bd 00d4 5139
000003d0: 7acb 833d 5a93 f7bd 4215 b93d 30b1 d3bd
000003e0: 00d0 e13a e018 aebc 0ad4 86bd d857 873c
000003f0: f2b0 d33d e8aa 15bd 56fc 97bd 845b 3dbd

weight_hh_l0 f4 [192, 64]
0.0012579709 -0.08138898 0.000119417906 0.1166396 -0.077623904 -0.021077052 0.039471477 0.023018792
0.051848993 0.08836262 -0.092997506 -0.123754606 0.114587575 0.0105508715 -0.069085434 -0.07138197
0.0026049316 -0.11410655 -0.09676261 0.032338813 0.0044364035 0.035938412 -0.0139476955 -0.07771
0.050449252 -0.111050814 -0.064349875 -0.024125442 0.031045526 0.07126032 0.08366616 0.014297187
-0.037291706 0.096061215 0.06807013 -0.03525664 -0.10943678 0.004159078 -0.04043962 0.006759241
0.024577588 -0.118518755 -0.062145606 -0.08919501 0.05129674 -0.10701953 0.019035697 -0.06848711
-0.0889889 0.11523324 -0.04383251 -0.09740396 0.074957415 0.121772245 -0.0942684 -0.06244737
-0.10524872 -0.045918033 0.008152112 -0.016752139 -0.024022505 0.007727936 0.10809608 0.123016104
-0.07079245 -0.06410554 0.08514796 -0.081688926 0.03169036 0.11716743 0.05814497 -0.12393683
0.111415 -0.0040928572 0.05627337 0.045591637 0.09140605 0.030738384 -0.08633074 -0.05510278
0.044081658 0.036758795 -0.07910392 0.09735499 0.10580948 -0.094115585 0.07476553 -0.030227318
0.06873906 0.11413023 0.04700297 0.083464086 0.0018359721 0.11145216 0.08357747 0.00028280914
0.05639322 -0.04922177 0.11908437 0.095845506 -0.11533092 -0.017019942 -0.013504401 -0.0042195767
-0.0439609 0.014811769 0.01688701 -0.06429422 -0.10479 -0.07371703 0.0841535 0.054019153
0.016694844 0.072209924 -0.07602759 -0.07794793 0.011447132 0.04809107 0.03282684 -0.08460373
-0.06018521 0.08615908 0.026078582 0.061050877 -0.049947456 0.10237791 0.103068635 0.07171552
0.0080584735 -0.068821535 -0.09137772 0.035628736 -0.014039695 -0.124507725 0.043669462 0.009649843
0.08893129 0.02169396 0.07349968 0.08915275 -0.04932928 -0.08930752 -0.03466712 -0.07395452
0.033282176 -0.07601625 0.07194711 0.11113885 -0.06611286 0.09232637 0.046765447 -0.078110844
-0.068430856 -0.10481389 -0.12453835 0.06234002 -0.07076132 -0.08603993 0.028905585 -0.011843786
-0.037036136 0.08587222 -0.0641845 0.01974772 -0.007456109 0.12451509 -0.018254355 -0.08609849
0.062345475 -0.09974736 0.045903042 0.028042436 0.020083845 -0.10591793 -0.06861453 0.08804488
0.0041629374 0.11106293 -0.03982775 0.10142332 0.06004487 0.0237616 -0.03643419 -0.10475139
0.07349324 0.031972125 -0.0054839402 0.014868557 -0.028253421 0.095377326 0.04023382 0.07518664
0.07199606 0.080126435 0.06508879 0.052563637 -0.10618454 -0.020128295 0.10764229 -0.1023978
-0.12143326 -0.024828374 0.03998466 0.021087438 0.03594008 0.12263383 0.022218212 0.08951445
0.022383437 -0.047957897 0.07811853 -0.12438907 -0.032513484 -0.118551314 -0.04311274 -0.10072346
-0.10388966 0.057420343 -0.03337401 -0.08392084 -0.061653167 -0.0027214587 0.059067294 -0.07273941
-0.031077325 -0.0021496564 -0.11145255 -0.10486239 0.00012618303 -0.0014996976 0.014996335 -0.051246747
0.0063144416 0.11462122 -0.0029216707 0.068646565 0.06237924 0.038504556 -0.029885694 0.11369912
-0.05236797 0.006254494 -0.038706124 0.1192884 -0.07334101 0.12038724 0.008531034 -0.11521348
0.066404924 0.040963322 0.03613308 0.03282672 -0.07434365 0.036107883 0.070730895 0.09042074
00000000: 80e2 a43a 44af a6bd 0070 fa38 bee0 ee3d
00000010: 48f9 9ebd c8a9 acbc d8ac 213d e891 bc3c
00000020: 9c5f 543d 76f7 b43d 7a75 bebd 0e73 fdbd
00000030: e4ac ea3d 90dd 2c3c aa7c 8dbd b630 92bd
00000040: 80b7 2a3b b2b0 e9bd 7a2b c6bd b475 043d
00000050: 405f 913b 2834 133d e084 64bc 6c26 9fbd
00000060: e0a3 4e3d 9c6e e3bd dec9 83bd b8a2 c5bc
00000070: 3053 fe3c eef0 913d 2a59 ab3d c03e 6a3c
00000080: 30bf 18bd bebb c43d 5a68 8b3d 4469 10bd
00000090: 6420 e0bd e048 883b 04a4 25bd a07c dd3b
000000a0: f056 c93c f6b9 f2bd 648c 7ebd e0ab b6bd
000000b0: 881c 523d 0e2d dbbd c0f0 9b3c f842 8cbd
000000c0: d03f b6bd 68ff eb3d b889 33bd ba7b c7bd
000000d0: 4683 993d ba63 f93d ca0f c1bd d0c8 7fbd
000000e0: a48c d7bd 8c14 3cbd 7090 053c c83b 89bc
000000f0: d8ca c4bc a03a fd3b 7a61 dd3d deef fb3d
00000100: a2fb 90bd c449 83bd 0e62 ae3d 864c a7bd
00000110: c0cd 013d 7af5 ef3d 6c29 6e3d 98d2 fdbd
00000120: 8c2d e43d 601d 86bb e87e 663d 4cbe 3a3d
00000130: 1833 bb3d 10cf fb3c 2cce b0bd 74b3 61bd
00000140: f88e 343d 6490 163d 3c01 a2bd 0e62 c73d
00000150: a4b2 d83d acbf c0bd ac1e 993d 489f f7bc
00000160: 10c7 8c3d 1cbd e93d 3086 403d 38ef aa3d
00000170: 00a5 f03a 0841 e43d aa2a ab3d 0046 9439
00000180: 94fc 663d c49c 49bd 82e2 f33d a64a c43d
00000190: 9e32 ecbd 686d 8bbc 9041 5dbc 6044 8abb
000001a0: 5810 34bd 10ad 723c a056 8a3c b0ac 83bd
000001b0: 249c d6bd f4f8 96bd ac58 ac3d 3043 5d3d
000001c0: a0c3 883c cce2 933d 5ab4 9bbd 2aa3 9fbd
000001d0: c08c 3b3c 24fb 443d 7075 063d b844 adbd
000001e0: c484 76bd 2c74 b03d c0a2 d53c 7c10 7a3d
000001f0: b495 4cbd 82ab d13d a615 d33d 96df 923d
00000200: b007 043c 4ef2 8cbd 3e24 bbbd 70ef 113d
00000210: c006 66bc e8fd febd c0de 323d 601a 1e3c
00000220: 9c21 b63d 88b7 b13c 0087 963d b895 b63d
00000230: 800d 4abd dce6 b6bd 1cff 0dbd 7875 97bd
00000240: e452 083d 68ae 9bbd 0259 933d c49c e33d
00000250: 2e66 87bd 9c15 bd3d 208d 3f3d 94f8 9fbd
00000260: 7a25 8cbd aaa8 d6bd f60d ffbd 4058 7f3d
00000270: 50eb 90bd b435 b0bd 68cb ec3c 700c 42bc
00000280: 34b3 17bd c6dd af3d 2a73 83bd f8c5 a13c
00000290: 6052 f4bb c401 ff3d 288a 95bc 6854 b0bd
000002a0: f85d 7f3d 5848 ccbd d404 3c3d 40b9 e53c
000002b0: e086 a43c 80eb d8bd c685 8cbd e050 b43d
000002c0: 4069 883b f674 e33d 6c22 23bd 08b7 cf3d
000002d0: 9cf1 753d b0a7 c23c 043c 15bd e687 d6bd
000002e0: a083 963d 34f5 023d a0b2 b3bb 409b 733c
000002f0: b873 e7bc 3055 c33d 38cc 243d 74fb 993d
00000300: ac72 933d 5419 a43d 464d 853d f84c 573d
00000310: 4877 d9bd 18e4 a4bc 9073 dc3d f0b5 d1bd
00000320: 00b2 f8bd e064 cbbc f4c6 233d 90bf ac3c
00000330: e835 133d 7227 fb3d f802 b63c 5a53 b73d
00000340: 785d b73c 806f 44bd 9cfc 9f3d b2bf febd
00000350: dc2c 05bd 08cb f2bd fc96 30bd 1a48 cebd
00000360: 1ac4 d4bd 9831 6b3d 30b3 08bd b0de abbd
00000370: 0888 7cbd 805a 32bb 8cf0 713d 66f8 94bd
00000380: e095 febc 40e1 0cbb 3c41 e4bd 18c2 d6bd
00000390: 0050 0439 8091 c4ba 30b3 753c 1ce8 51bd
000003a0: 60e9 ce3b 88be ea3d 8079 3fbb 9296 8c3d
000003b0: 6081 7f3d f4b6 1d3d d8d2 f4bc 16db e83d
000003c0: cc7f 56bd 80f2 cc3b 508a 1ebd 7a4d f43d
000003d0: d033 96bd 968d f63d c0c5 0b3c 0cf5 ebbd
000003e0: 4eff 873d 28c9 273d 4800 143d 5075 063d
000003f0: 7c41 98bd dce5 133d 5cdb 903d 822e b93d

bias_ih_l0 f4 [192]
0.0505486 0.0048235655 0.096860856 -0.10082804 0.004361883 0.011739284 -0.055169776 0.04612267
0.07800464 -0.09535943 0.05285245 -0.0626487 0.106398344 -0.105469465 0.109427705 0.03126523
-0.05509843 -0.06260286 -0.1132551 -0.10361411 -0.071832865 -0.025930867 -0.015133709 0.11805223
-0.06843488 0.049280167 0.08302286 -0.0026532263 0.04189153 0.11054528 -0.050181404 -0.07734594
0.11542943 -0.12154369 -0.03455977 0.084927514 0.08840032 0.11940898 0.018661022 0.006505385
0.07332474 -0.04530877 0.0013730675 -0.106293336 0.08453952 -0.07071681 0.07617371 0.017120391
0.0049957484 -0.11893426 0.017902404 0.031211004 0.046081245 -0.052009106 -0.102184296 0.11272518
-0.11860064 0.014949143 0.07765539 0.08833918 0.0052769333 -0.08034173 -0.033994257 -0.01794687
-0.0013898909 0.11646713 -0.11959727 0.029507816 0.08631784 0.04555647 -0.085617825 -0.006933555
-0.06523459 -0.09300901 -0.022469938 0.11282262 0.040360853 0.095826894 -0.069888845 -0.03465444
-0.07840186 0.013780206 -0.015924886 -0.06650667 -0.060853958 0.021177083 0.07740019 0.029383928
-0.03398256 0.0630486 -0.026308998 0.098468795 0.12468435 0.010050535 -0.10237664 -0.04656142
0.06520851 0.08913262 0.10622822 -0.08055261 0.054934457 0.045569718 0.089699015 0.045931056
-0.07003723 0.050343663 0.053815216 0.03484668 0.000417158 0.077996746 -0.09389828 0.10705021
-0.06276652 0.0033464432 0.070786506 -0.013718054 0.031137735 0.0532441 0.072815835 -0.024851501
-0.09546715 -0.03863515 0.12416969 0.10340698 0.007990226 0.026412934 0.08640164 -0.112690285
0.038086385 -0.016709939 -0.023238793 -0.023700058 0.08730945 -0.1155439 -0.022334144 0.0734901
-0.06548956 0.10448265 0.06799838 -0.056857944 -0.115773216 0.039062336 0.02084577 -0.03240113
0.011502624 -0.059407935 0.07016146 -0.08972667 -0.03892933 -0.03327933 -0.067284316 0.11474182
-0.059460282 -0.03051193 -0.10458961 -0.09562397 0.06892274 -0.096566096 0.025319502 0.03395617
-0.10105997 -0.042226896 0.06624785 0.047782242 -0.08381249 0.021262005 0.12066646 -0.08939494
-0.11852081 0.06691149 0.10847528 -0.026449233 0.030462846 0.06911744 0.109482914 -0.020482048
0.0030320883 -0.02334547 -0.07183467 -0.023610726 -0.033130303 -0.01063247 -0.12386821 0.1013201
0.08409174 -0.06370625 0.034006998 -0.059467286 0.014530808 -0.06946175 0.06879185 -0.071003884
00000000: 0c0c 4f3d 000f 9e3b fc5e c63d ee7e cebd
00000010: 20ee 8e3b 2056 403c b4f9 61bd 20eb 3c3d
00000020: e6c0 9f3d ce4b c3bd d07b 583d f64d 80bd
00000030: 60e7 d93d 6000 d8bd a21b e03d f80f 003d
00000040: e4ae 61bd ee35 80bd 4af2 e7bd a233 d4bd
00000050: 1c1d 93bd f86c d4bc 60f3 77bc 5ec5 f13d
00000060: 9627 8cbd 00da 493d e407 aa3d c0e1 2dbb
00000070: 7496 2b3d 9065 e23d 048b 4dbd 8c67 9ebd
00000080: 4466 ec3d e6eb f8bd 8c8e 0dbd 7aee ad3d
00000090: 3a0b b53d b28c f43d 00df 983c 202b d53b
000000a0: 482b 963d b095 39bd 80f8 b33a 52b0 d9bd
000000b0: 0e23 ad3d fad3 90bd f600 9c3d 1040 8c3c
000000c0: 60b3 a33b ce93 f3bd 10a8 923c 38ae ff3c
000000d0: b0bf 3c3d 8007 55bd 0046 d1bd 76dc e63d
000000e0: e4e4 f2bd 40ed 743c ca09 9f3d 2ceb b43d
000000f0: 20ea ac3b 348a a4bd 903d 0bbd 5005 93bc
00000100: 002d b6ba 5286 ee3d 6aef f4bd 60ba f13c
00000110: 68c7 b03d 6c99 3a3d 6658 afbd e032 e3bb
00000120: b699 85bd 827b bebd e012 b8bc 8c0f e73d
00000130: 6c51 253d e440 c43d e221 8fbd d0f1 0dbd
00000140: 2891 a0bd 60c6 613c e874 82bc a634 88bd
00000150: 0042 79bd 907b ad3c fe83 9e3d 90b6 f03c
00000160: 4c31 0bbd a01f 813d f885 d7bc 02aa c93d
00000170: 825a ff3d 00ab 243c d8aa d1bd 30b7 3ebd
00000180: 0a8c 853d 2a8b b63d 2e8e d93d c4f8 a4bd
00000190: f402 613d 50a7 3a3d 1eb4 b73d 3422 3c3d
000001a0: ae6f 8fbd 2835 4e3d 586d 5c3d 64bb 0e3d
000001b0: 00b6 da39 c2bc 9f3d be4d c0bd 243d db3d
000001c0: bc8b 80bd 0050 5b3b 84f8 903d b0c1 60bc
000001d0: 9014 ff3c 7c16 5a3d 7820 953d 6095 cbbc
000001e0: 4884 c3bd e43f 1ebd ae4c fe3d 0ac7 d33d
000001f0: 70e9 023c f05f d83c 58f3 b03d 2aca e6bd
00000200: 7800 1c3d 48e3 88bc 485f bebc a026 c2bc
00000210: 4ccf b23d 48a2 ecbd 18f6 b6bc fa81 963d
00000220: 641f 86bd 00fb d53d bc42 8b3d e0e3 68bd
00000230: 821a edbd d4ff 1f3d c0c4 aa3c 0cb7 04bd
00000240: 8075 3c3c bc55 73bd d0b0 8f3d 9ec2 b7bd
00000250: 5c74 1fbd e84f 08bd 5ccc 89bd c2fd ea3d
00000260: a08c 73bd 28f4 f9bc 1433 d6bd 80d6 c3bd
00000270: 5e27 8d3d 72c4 c5bd d86a cf3c a015 0b3d
00000280: 88f8 cebd 1cf6 2cbd f4ac 873d 50b7 433d
00000290: e2a5 abbd a82d ae3c fa1f f73d b214 b7bd
000002a0: 0abb f2bd e408 893d 4a28 de3d 10ac d8bc
000002b0: 388d f93c 728d 8d3d 9438 e03d f8c9 a7bc
000002c0: 00b6 463b 003f bfbc 0e1e 93bd 486b c1bc
000002d0: a4b3 07bd d033 2ebc 9eae fdbd ea80 cf3d
000002e0: 4a38 ac3d 6c78 82bd ec4a 0b3d f893 73bd
000002f0: a012 6e3c f641 8ebd bee2 8c3d 7c6a 91bd

bias_hh_l0 f4 [192]
-0.07055025 0.049454898 0.06415568 -0.05204141 -0.037757292 -0.09302634 -0.11010073 -0.08882983
-0.089462996 -0.107466444 -0.04056026 -0.013811618 -0.07959509 0.08702685 0.045009345 -0.037547797
0.113940045 0.061967418 0.04310946 -0.04604517 -0.08268052 -0.10687958 0.0885153 0.074168265
-0.0969421 0.023449361 -0.08380358 -0.05751513 -0.08643846 0.11300887 -0.10892086 -0.090160385
-0.1080738 0.07633777 -0.09168254 -0.037369564 0.018498316 0.06459688 0.021139577 -0.10662447
-0.012046337 0.037148297 0.10419999 -0.011186302 -0.059829265 -0.027826697 0.0919327 -0.058828086
0.034097046 0.026502028 0.06862764 0.06634842 -0.11989619 0.075752825 0.10713458 0.11851518
0.056507707 -0.055060923 0.049738422 -0.070197 0.06440468 0.10372937 -0.027870238 0.022042334
-0.019151375 -0.023904398 -0.047472358 -0.05205454 -0.11083785 -0.05740601 0.011112645 -0.01846467
-0.023571894 -0.05248736 -0.09805779 -0.10370584 0.102607325 0.012426063 -0.110043064 -0.010337919
0.07108359 0.08603315 0.06404878 -0.09267697 0.034033403 0.062336415 -0.07120673 0.099933624
0.032684058 0.10419865 -0.09830694 0.08173928 -0.0030255616 0.1216193 -0.07814354 0.11813636
-0.07647723 0.02303411 -0.07320586 -0.11104168 0.074756 0.05418873 0.011210874 -0.009735882
-0.05771199 -0.019801706 -0.040991932 0.00815618 0.11592136 -0.085258126 0.07360397 -0.11407055
0.041706398 0.031586334 0.034795284 -0.062081695 0.03689553 -0.0016459823 0.03827612 0.11551735
0.07252577 -0.034019828 -0.06271693 0.10197836 0.11992508 0.08710097 0.10105598 -0.06713006
-0.039821386 -0.09699388 0.034282714 0.036928713 0.09963058 -0.05048254 -0.07732645 -0.0024991632
0.0044794977 0.023873836 0.015454605 -0.004591152 -0.12251982 0.10616681 -0.044856936 -0.08819988
0.03978397 -0.0026670545 -0.026233986 0.07334413 0.053598598 -0.03918904 -0.055857614 0.01508531
-0.10358991 0.044159427 -0.09821051 -0.074129984 -0.0148011595 0.0134420395 0.05806379 -0.0117396265
-0.11388746 -0.068955645 -0.016342774 -0.08896841 0.037774146 -0.08790937 -0.056068912 0.102966085
-0.01696901 -0.08137134 -0.004417211 -0.11900671 0.075134814 -0.025380418 -0.086864084 0.0614769
0.027764246 0.0061109215 -0.11604728 -0.03723125 -0.02378431 0.077524334 0.07481247 -0.123174936
0.1156469 0.014331922 0.021816999 -0.047789976 0.04680036 -0.094557285 0.030246198 -0.09350252
00000000: a67c 90bd 3891 4a3d 0e64 833d 6029 55bd
00000010: 64a7 1abd 9884 bebd 7e7c e1bd 6aec b5bd
00000020: 6038 b7bd 5e17 dcbd 8422 26bd 204a 62bc
00000030: c002 a3bd 223b b23d b85b 383d b8cb 19bd
00000040: 6659 e93d 8cd1 7d3d 8c93 303d dc99 3cbd
00000050: 6854 a9bd aee3 dabd 8247 b53d 88e5 973d
00000060: 9489 c6bd e018 c03c 36a1 abbd fc94 6bbd
00000070: a606 b1bd 3271 e73d e611 dfbd 02a6 b8bd
00000080: cc55 ddbd fa56 9c3d 0ec4 bbbd d410 19bd
00000090: c889 973c 5e4b 843d e82c ad3c ee5d dabd
000000a0: 005e 45bc d028 183d ce66 d53d c046 37bc
000000b0: 880f 75bd d0f4 e3bc 3647 bc3d b8f5 70bd
000000c0: 58a9 0b3d c81a d93c a68c 8c3d aee1 873d
000000d0: 228c f5bd 4c24 9b3d 6069 db3d 16b8 f23d
000000e0: a074 673d 9087 61bd 84ba 4b3d 72c3 8fbd
000000f0: 9ae6 833d 1070 d43d 2050 e4bc 2092 b43c
00000100: 58e3 9cbc 28d3 c3bc 6072 42bd 2437 55bd
00000110: f4fe e2bd 9022 6bbd d011 363c 3843 97bc
00000120: d819 c1bc fcfc 56bd 86d2 c8bd ba63 d4bd
00000130: ca23 d23d b096 4b3c 425e e1bd 6060 29bc
00000140: 4694 913d 2632 b03d 022c 833d 6ccd bdbd
00000150: 9c66 0b3d 7854 7f3d d6d4 91bd 00aa cc3d
00000160: b8df 053d 1a66 d53d 2655 c9bd ec66 a73d
00000170: 8048 46bb 8a13 f93d b809 a0bd 7af1 f13d
00000180: 18a0 9cbd 08b2 bc3c f4ec 95bd d269 e3bd
00000190: ac19 993d 00f5 5d3d d0ad 373c 4083 1fbc
000001a0: 6863 6cbd 3037 a2bc 28e7 27bd 80a1 053c
000001b0: 2e68 ed3d d09b aebd aebd 963d d29d e9bd
000001c0: 54d4 2a3d ac60 013d 8085 0e3d 6049 7ebd
000001d0: c41f 173d 00be d7ba 6cc7 1c3d 5c94 ec3d
000001e0: 6488 943d 6058 0bbd bc71 80bd 08da d03d
000001f0: 489b f53d fe61 b23d 70f6 ce3d 7c7b 89bd
00000200: c01b 23bd baa4 c6bd 086c 0c3d 9042 173d
00000210: 1e0b cc3d c8c6 4ebd 545d 9ebd 00c9 23bb
00000220: c0c8 923b 1093 c33c 5035 7d3c 6071 96bb
00000230: aceb fabd fc6d d93d e8bb 37bd 24a2 b4bd
00000240: 84f4 223d c0c9 2ebb a8e8 d6bc 7235 963d
00000250: 348a 5b3d b084 20bd f4ca 64bd 6028 773c
00000260: f226 d4bd 84e0 343d 9822 c9bd 76d1 97bd
00000270: 9080 72bc 003c 5c3c 4cd4 6d3d 9057 40bc
00000280: d43d e9bd 9e38 8dbd 48e1 85bc 1235 b6bd
00000290: 10b9 1a3d d409 b4bd 84a8 65bd e2df d23d
000002a0: 9802 8bbc 04a6 a6bd 40be 90bb cab9 f3bd
000002b0: 48e0 993d 98ea cfbc cce5 b1bd 34cf 7b3d
000002c0: d871 e33c 203e c83b 32aa edbd cc7f 18bd
000002d0: 50d7 c2bc 14c5 9e3d 4837 993d 2443 fcbd
000002e0: 48d8 ec3d 70d0 6a3c 90b9 b23c 6cbf 43bd
000002f0: bcb1 3f3d 40a7 c1bd e0c6 f73c 407e bfbd

weight f4 [12, 64]
-0.04762964 -0.10592854 0.039155677 0.029334322 0.01608406 0.05094807 0.040473282 -0.0013973415
-0.016188368 -0.053744495 0.007516876 -0.031282514 0.041654274 0.0839213 -0.016497761 -0.10888991
-0.03135623 0.08062142 0.013505533 -0.12211695 0.07547216 0.08852647 -0.10877289 0.0647614
-0.07087028 -0.04709275 -0.076127395 -0.052776143 -0.10806957 0.10304245 0.0011848956 0.035107046
0.045871317 -0.007908434 -0.016219914 -0.0795995 -0.01843591 -0.120945364 0.1034922 -0.03690158
0.046628207 0.104712635 0.07193354 0.12166685 0.013928175 0.08566472 -0.07549359 -0.05591944
0.032984674 -0.053227738 0.09305014 -0.018474236 -0.03347078 -0.097410396 -0.061708555 0.107018024
0.060099706 0.07540074 0.104223594 0.013208136 -0.009336621 0.0971013 0.013098642 -0.022337183
0.012754098 0.029886618 -0.10796322 0.047534794 -0.04256341 -0.106372386 0.0007747859 0.018189773
0.10061225 -0.03193149 0.08392115 0.056190416 0.05677709 0.05967571 -0.08133513 -0.0030495226
0.12413962 0.09579794 -0.047210008 -0.0045796186 0.04788412 -0.08694212 0.0830024 -0.072592005
0.06904726 -0.0906492 0.065864414 0.09672958 -0.009169772 -0.07549918 0.10165453 0.020147175
-0.070182845 -0.0046104044 0.0847469 -0.09562531 -0.047422215 0.0468089 -0.058672756 0.082536206
0.1050158 -0.035166755 -0.06923877 -0.10663018 0.07303354 -0.034901634 0.061724693 -0.055947006
0.0832082 0.112928525 -0.12472457 0.045661926 -0.106184006 -0.03358221 -0.00073984265 -0.072275594
0.03258905 -0.0016372055 0.06257032 0.09311004 0.09883414 -0.04334241 0.014738455 -0.062802866
0.019343764 -0.09174733 -0.11908251 0.08657795 0.09383032 -0.011789605 1.2293458e-05 0.071674794
0.08801794 0.10841867 -0.1094155 0.00064851344 -0.050578713 0.11838873 -0.013916746 -0.060799465
0.07371475 -0.043704644 0.0259054 -0.03574942 -0.030220136 0.052660942 0.08675927 0.08794922
-0.0647406 -0.022850648 -0.06473179 -0.015544385 -0.033389106 -0.07384457 -0.021106362 -0.10199574
-0.06656656 -0.06809871 0.08483194 0.012978628 0.09881082 -0.014712766 -0.116515145 0.06158057
0.010396108 -0.058864683 0.08036195 -0.046705127 -0.0052484274 0.0872798 0.08015242 0.052615702
0.09951174 -0.05733432 -0.113414764 -0.045885116 -0.027125746 -0.03234555 0.07158357 -0.0796472
-0.019757763 0.11064251 -0.036958948 0.04328631 0.04118009 -0.089903325 0.0046312064 0.11751497
0.0068234205 0.11002819 -0.035016373 -0.0010104775 -0.07512292 -0.09588832 -0.041134477 -0.11370166
0.08155486 0.044409916 -0.06159213 -0.029756755 -0.038112313 0.02634041 0.03607367 0.10451454
0.017051369 0.0014087856 -0.08249533 0.06660932 -0.041477323 -0.11486702 0.09530145 -0.09136069
0.041541666 -0.111977965 -0.12178925 0.055758357 -0.071798414 0.11155479 0.038378373 -0.118238896
0.044349775 0.006983474 0.11953081 0.09261921 -0.059133112 -3.476441e-05 -0.061304867 -0.03386931
0.04377146 0.07776734 -0.022793412 0.019504681 0.05002269 0.05548583 -0.10767819 -0.062958
-0.0761728 0.11938323 -0.046126068 0.045056254 0.026751384 -0.009682268 0.03198895 0.016424239
-0.124198586 0.06251964 0.023190022 -0.110768646 0.09039229 -0.043938532 -0.004621461 0.08360547
00000000: 4c17 43bd 10f1 d8bd b461 203d 884e f03c
00000010: b8c2 833c ecae 503d 50c7 253d 0027 b7ba
00000020: 789d 84bc 3023 5cbd 2050 f63b 1822 00bd
00000030: ac9d 2a3d eede ab3d 5026 87bc ac01 dfbd
00000040: 646f 00bd d81c a53d 5046 5d3c 7418 fabd
00000050: 2691 9a3d 5e4d b53d 52c4 debd a0a1 843d
00000060: 7024 91bd 54e4 40bd aee8 9bbd cc2b 58bd
00000070: 9453 ddbd ec07 d33d 804e 9b3a 68cc 0f3d
00000080: 90e3 3b3d 6092 01bc a0df 84bc 1005 a3bd
00000090: e806 97bc 34b2 f7bd b8f3 d33d 1c26 17bd
000000a0: 38fd 3e3d 9473 d63d e451 933d 782c f93d
000000b0: 0033 643c fc70 af3d 629c 9abd c80b 65bd
000000c0: f01a 073d 5405 5abd 1291 be3d 4857 97bc
000000d0: a818 09bd 1a7f c7bd 1cc2 7cbd 442c db3d
000000e0: 1c2b 763d b46b 9a3d 2e73 d53d f066 583c
000000f0: a0f8 18bc 0cdd c63d b09b 563c 78fc b6bc
00000100: 90f6 503c c8d4 f43c d21b ddbd d8b3 423d
00000110: f856 2ebd c4d9 d9bd 001b 4b3a b802 953c
00000120: cc0d ce3d 98ca 02bd dade ab3d ec27 663d
00000130: 188f 683d 846e 743d 0893 a6bd 80da 47bb
00000140: ea3c fe3d b631 c43d 485f 41bd a010 96bb
00000150: 2422 443d b60e b2bd 2afd a93d 1eab 94bd
00000160: a668 8d3d 4aa6 b9bd ece3 863d 281a c63d
00000170: d03c 16bc 509f 9abd 4030 d03d b00b a53c
00000180: 06bc 8fbd e012 97bb c88f ad3d 34d7 c3bd
00000190: cc3d 42bd b0ba 3f3d d852 70bd be08 a93d
000001a0: 8612 d73d 040b 10bd 0ecd 8dbd ec60 dabd
000001b0: 9c92 953d 04f5 0ebd 08d3 7c3d b028 65bd
000001c0: 1069 aa3d 1247 e73d 986f ffbd 0008 3b3d
000001d0: 0077 d9bd 808d 09bd 00f2 41ba 3a05 94bd
000001e0: 187c 053d 8097 d6ba de24 803d 7ab0 be3d
000001f0: 8e69 ca3d d087 31bd 9079 713c ca9e 80bd
00000200: d076 9e3c 06e6 bbbd 88e1 f3bd c84f b13d
00000210: 1c2a c03d 3029 41bc 0040 4e37 3cca 923d
00000220: c042 b43d 9c0a de3d 3c15 e0bd 0001 2a3a
00000230: a02b 4fbd ca75 f23d 1003 64bc dc08 79bd
00000240: c2f7 963d a403 33bd 9037 d43c fc6d 12bd
00000250: 3890 f7bc 00b3 573d d8ae b13d b81e b43d
00000260: b896 84bd 4831 bbbc 1a92 84bd e0ad 7ebc
00000270: 04c3 08bd d23b 97bd 40e7 acbc 24e3 d0bd
00000280: 0c54 88bd 5677 8bbd 5ebc ad3d 50a4 543c
00000290: 545d ca3d d00d 71bc 7e9f eebd e83b 7c3d
000002a0: 7054 2a3c 181c 71bd ce94 a43d e04d 3fbd
000002b0: 00fb abbb c0bf b23d f426 a43d 9083 573d
000002c0: d0cc cb3d 64d7 6abd 0046 e8bd 08f2 3bbd
000002d0: d036 debc c47c 04bd 689a 923d 121e a3bd
000002e0: 08db a1bc 8a98 e23d 4462 17bd fc4c 313d
000002f0: 74ac 283d 3c1f b8bd 60c1 973b b0ab f03d
00000300: 0097 df3b 7656 e13d 546d 0fbd 0072 84ba
00000310: 0cda 99bd 1861 c4bd a07c 28bd 6adc e8bd
00000320: 3c06 a73d 2ce7 353d 0848 7cbd 70c4 f3bc
00000330: a81b 1cbd d8c7 d73c fcc1 133d b80b d63d
00000340: 50af 8b3c 00a7 b83a 50f3 a8bd 786a 883d
00000350: 20e4 29bd 663f ebbd 682d c33d 501b bbbd
00000360: 9827 2a3d b454 e5bd a46c f9bd e062 643d
00000370: 0c0b 93bd d676 e43d a432 1d3d 3c27 f2bd
00000380: 1ca8 353d a0d5 e43b 92cc f43d 24af bd3d
00000390: 9035 72bd 00d0 11b8 d01a 7bbd 8cba 0abd
000003a0: b449 333d 7c44 9f3d 40b9 babc 48c8 9f3c
000003b0: 98e4 4c3d 1c45 633d 6286 dcbd 20f0 80bd
000003c0: 7c00 9cbd 327f f43d b0ee 3cbd e88c 383d
000003d0: b825 db3c 60a2 1ebc d806 033d 208c 863c
000003e0: d45b febd 4c0a 803d 00f9 bd3c acda e2bd
000003f0: 981f b93d e4f8 33bd a06f 97bb 5839 ab3d

bias f4 [12]
-0.12004633 -0.034476086 -0.036550224 0.11158326 -0.08122037 0.034922317 0.05730164 0.120745316
0.09794541 -0.10358143 -0.010943443 0.10440229
00000000: dada f5bd cc36 0dbd b0b5 15bd c485 e43d
00000010: de56 a6bd b40a 0f3d 20b5 6a3d 5249 f73d
00000020: 9a97 c83d 8022 d4bd 204c 33bc ded0 d53d

weight f4 [8, 64]
-0.10615663 0.06689079 0.022838265 0.0044226646 -0.08021413 -0.0006042272 -0.013268888 0.002549842
-0.05893974 -0.07944818 0.005103722 0.008491695 -0.016120836 -0.12362735 -0.008260101 -0.055739403
0.0030003786 -0.07387589 -0.04346931 0.066960305 0.11228597 0.037829414 -0.09069158 -0.08408518
-0.04302326 -0.051184237 -0.04981953 0.0960716 0.044253334 -0.110472545 0.036020488 -0.115972295
-0.04936835 0.027989447 -0.07668933 0.050955728 0.035791606 -0.04734212 0.08905798 -0.10443872
-0.028461188 0.056428164 0.061736718 -0.08342402 -0.025197446 -0.027148485 0.0019860566 0.08355285
0.03466831 -0.10667929 -0.12170541 -0.061364517 -0.116559595 0.08857338 -0.10533884 -0.11864333
-0.010805562 -0.008729413 -0.039375648 0.0568904 0.0477926 0.06642036 0.06636734 0.12133601
-0.024096608 0.09365933 0.02054441 0.11678842 0.028426692 -0.12026304 -0.050610587 0.02886179
-0.06362274 0.024072424 0.04600522 0.1058891 0.040399298 0.027783066 -0.092561066 0.090856716
0.025859207 -0.00068739057 0.06564793 0.038388 -0.04914914 0.090918615 0.073133454 0.12154889
-0.101158634 -0.11630051 -0.04160735 0.0011124313 0.10341968 0.017737135 0.039878666 0.10047419
0.09016037 -0.0790512 0.06079009 -0.0318342 -0.050148234 -0.07187319 -0.070838064 -0.08269583
0.11883554 -0.03446278 0.05657412 -0.018868387 0.018826827 0.054619238 -0.10593109 0.08981192
-0.004192114 0.023927256 0.08987023 0.11177996 -0.098924324 -0.0074881315 0.015759304 -0.060047448
0.10799675 -0.02946058 0.05838643 0.100295365 0.08112651 0.111860245 -0.005799353 -0.037064493
0.07963689 0.07267587 -0.06594144 -0.10656828 -0.11515932 0.024855897 0.04953067 -0.018406853
0.05438523 -0.046108007 -0.07643364 -0.08964184 0.05248542 0.10328612 0.00065875053 0.041768983
0.064877346 -0.07490635 -0.022978649 0.09684457 0.07334562 0.014360443 0.102798134 0.027937427
0.064164534 0.100216284 -0.0995308 0.084113315 -0.09888025 -0.096540034 -0.0082639605 0.032054603
-0.043072313 -0.039451435 0.11456786 -0.10342918 -0.093983635 0.07284111 0.034296468 0.0032720864
-0.0090108365 -0.110004276 -0.0277673 -0.06304166 0.040112764 -0.097529724 0.025643647 0.065451995
-0.114324644 0.108058125 -0.04602121 0.09446706 0.005744323 -0.018002436 0.08200981 0.09455091
0.005647853 0.09295346 -0.08572285 0.07931802 0.055399567 0.05400014 0.02923213 -0.07700999
-0.061062455 0.032226115 -0.023763537 -0.023482502 0.033829287 0.098426506 -0.041466936 -0.11104967
-0.026455224 0.115865186 -0.06721434 0.1121299 -0.010878503 -0.07852617 0.043603823 -0.083349675
0.021572828 0.11462584 -0.08206391 -0.012720525 -0.0030130148 0.04810582 0.0830677 -0.1247202
0.07896429 -0.116812155 -0.007979825 -0.057423726 -0.032244965 -0.10757898 0.07282117 0.07912749
-0.013855144 0.025948182 -0.036074445 0.037567034 0.015575603 0.09663798 0.027180418 -0.05974324
0.04223384 -0.046598837 0.067889795 -0.10381223 0.04284452 0.056576014 -0.0932938 -0.080540895
0.1159291 -0.11291441 -0.115196005 0.03449531 -0.047540143 0.050550804 -0.07048127 -0.014662296
-0.019767955 0.103203446 -0.039317787 -0.0816562 0.116973445 0.06103383 0.081727296 0.011240423
00000000: a668 d9bd 0afe 883d 5017 bb3c 00ec 903b
00000010: 4e47 a4bd 0065 1eba c065 59bc 401b 273b
00000020: cc6a 71bd bab5 a2bd 203d a73b c020 0b3c
00000030: d80f 84bc 5630 fdbd 6055 07bc 004f 64bd
00000040: 00a2 443b 3e4c 97bd e00c 32bd 7c22 893d
00000050: 30f6 e53d 04f3 1a3d 82bc b9bd da34 acbd
00000060: 2839 30bd 90a6 51bd 900f 4cbd 30c1 c43d
00000070: fc42 353d 6e3f e2bd 388a 133d e282 edbd
00000080: 7836 4abd 204a e53c 4c0f 9dbd f4b6 503d
00000090: 389a 123d d0e9 41bd 0864 b63d f8e3 d5bd
000000a0: 7027 e9bc 3821 673d a4df 7c3d 36da aabd
000000b0: e06a cebc 8066 debc 8028 023b c21d ab3d
000000c0: 5c00 0e3d ac7a dabd b040 f9bd 5c59 7bbd
000000d0: ccb6 eebd f665 b53d e4bb d7bd 46fb f2bd
000000e0: d009 31bc d005 0fbc 5c48 21bd e805 693d
000000f0: 2cc2 433d 6607 883d 9aeb 873d 047f f83d
00000100: 4066 c5bc 76d0 bf3d c04c a83c c42e ef3d
00000110: 18df e83c 784c f6bd 0c4d 4fbd 906f ec3c
00000120: a44c 82bd 8833 c53c f86f 3c3d 62dc d83d
00000130: bc79 253d 5099 e33c a890 bdbd 1613 ba3d
00000140: b0d6 d33c 0032 34ba 6c72 863d bc3c 1d3d
00000150: 9c50 49bd 8a33 ba3d fec6 953d a0ee f83d
00000160: 422c cfbd f62e eebd 786c 2abd 00cf 913a
00000170: b2cd d33d 784d 913c d057 233d 6ac5 cd3d
00000180: 00a6 b83d 98e5 a1bd 08ff 783d 9464 02bd
00000190: 3c68 4dbd 4032 93bd 8c13 91bd 6e5c a9bd
000001a0: 0c60 f33d d828 0dbd 44ba 673d e091 9abc
000001b0: b83a 9a3c 6cb8 5f3d 66f2 d8bd 50ef b73d
000001c0: 005e 89bb 1803 c43c e20d b83d e4ec e43d
000001d0: d698 cabd 005f f5bb a819 813c 50f4 75bd
000001e0: 662d dd3d 5057 f1bc 9c26 6f3d a867 cd3d
000001f0: a825 a63d fc16 e53d 8008 bebb f0d0 17bd
00000200: aa18 a33d 16d7 943d 4e0c 87bd 7840 dabd
00000210: a6d8 ebbd 989e cb3c ace0 4a3d f8c9 96bc
00000220: 0cc3 5e3d c0db 3cbd 3e89 9cbd 2496 b7bd
00000230: f4fa 563d ac87 d33d 00b0 2c3a f415 2b3d
00000240: 6ade 843d 8068 99bd b83d bcbc 7256 c63d
00000250: 3a36 963d 1048 6b3c d487 d23d 08dd e43c
00000260: b268 833d 323e cd3d ced6 cbbd 9a43 ac3d
00000270: ba81 cabd c8b6 c5bd 9065 07bc b04b 033d
00000280: 986c 30bd d497 21bd 8ea2 ea3d aed2 d3bd
00000290: 7e7a c0bd b82d 953d 747a 0c3d 8070 563b
000002a0: 30a2 13bc ec49 e1bd 4078 e3bc fc1b 81bd
000002b0: 484d 243d aabd c7bd a012 d23c b20b 863d
000002c0: 0a23 eabd 944d dd3d bc80 3cbd f277 c13d
000002d0: e03a bc3b d879 93bc c2f4 a73d e8a3 c13d
000002e0: a011 b93b 625e be3d 768f afbd 7c71 a23d
000002f0: a8ea 623d 402f 5d3d 3878 ef3c 6ab7 9dbd
00000300: a01c 7abd 88ff 033d c0ab c2bc 605e c0bc
00000310: 9490 0a3d d693 c93d 3cd9 29bd 026e e3bd
00000320: a0b8 d8bc ba4a ed3d aca7 89bd 5ca4 e53d
00000330: c03b 32bc 54d2 a0bd ec99 323d 3cb3 aabd
00000340: 80b9 b03c f4c0 ea3d 2011 a8bd c069 50bc
00000350: 0076 45bb 9c0a 453d 661f aa3d 4e6d ffbd
00000360: 08b8 a13d 363b efbd d0bd 02bc 2435 6bbd
00000370: 4c13 04bd 5e52 dcbd 4423 953d 980d a23d
00000380: b000 63bc 4891 d43c ccc2 13bd e4df 193d
00000390: d030 7f3c 22ea c53d 78a9 de3c 54b5 74bd
000003a0: 64fd 2c3d 6cde 3ebd ce09 8b3d 829b d4bd
000003b0: bc7d 2f3d 40bc 673d d210 bfbd a0f2 a4bd
000003c0: 3c6c ed3d ac3f e7bd e2eb ebbd f44a 0d3d
000003d0: 74b9 42bd 5c0e 4f3d 7c58 90bd 203a 70bc
000003e0: 68f0 a1bc 545c d33d b00b 21bd 5e3b a7bd
000003f0: c68f ef3d 9cfe 793d a460 a73d c029 383c

bias f4 [8]
-0.007207066 -0.09108135 0.023655072 -0.06663981 0.009393647 -0.0012796521 -0.08246991 0.075376734
00000000: 4029 ecbb dc88 babd 48c8 c13c 747a 88bd
00000010: d0e7 193c 00ba a7ba fce5 a8bd 1e5f 9a3d

weight f4 [7, 64]
0.12028231 0.109363064 0.009908691 0.04680139 0.09767097 -0.033945784 -0.10186471 0.002508998
0.12369692 -0.10001446 -0.036559984 0.02185975 -0.062253 0.049319252 0.04439293 0.118137255
-0.10546589 -0.052603304 0.014363021 0.07715772 -0.04003276 -0.0931256 0.01383771 -0.055960715
0.024599433 0.08143699 -0.07217413 0.06195934 -0.11416949 -0.11946958 0.079235286 -0.08258346
-0.06883432 0.055707276 0.011429086 -0.0006515682 0.07086821 -0.07106078 -0.09460378 -0.01608494
0.11961028 -0.08150315 -0.0347718 -0.05120343 0.059641823 0.006097704 0.0024406463 0.060918793
0.018645242 0.10143413 0.12143682 0.07837409 -0.12081355 -0.11951569 0.0133648515 -0.013279185
0.099416345 0.045419797 0.11219165 0.11322574 0.119909704 -0.08538696 -0.039211437 -0.08304925
-0.09941411 -0.09210667 0.082844436 -0.023194537 0.061367124 -0.020459726 -0.08310653 -0.11059205
-0.0066452473 0.07580531 0.09925692 -0.079488605 0.080834314 -0.0022838712 -0.08582385 -0.09957144
-0.05587268 -0.06299716 -0.07828748 -0.09106554 -0.09887102 0.10216321 0.007846594 0.072345495
0.118812814 0.057001308 -0.102117 0.06076832 0.0021297187 0.028188154 0.097032174 -0.08074637
0.057203695 0.083169326 0.117668 0.03966956 -0.07753053 -0.11632916 0.121985555 -0.069857106
0.10467973 0.044572607 0.024150997 -0.055141762 0.10880558 -0.038022056 -0.07323402 0.071251705
-0.011764869 -0.031863347 0.120594814 -0.10207842 -0.11990933 -0.033018813 -0.009525895 -0.012003392
0.0035959482 0.09711261 -0.082649976 -0.11170009 -0.007859096 -0.036293715 0.076826945 0.07044725
-0.11523715 0.04965374 0.10859987 0.025014028 0.10829294 0.113287166 -0.09481737 0.05257754
0.048703834 -0.052917004 -0.11829886 0.043032274 -0.09611422 -0.019468576 -0.075558946 -0.059972256
-0.021142274 0.11738004 0.002217725 -0.0782879 -0.115854576 -0.07412405 0.061514646 -0.07310915
-0.055392876 -0.09264077 -0.021291286 0.015179291 -0.035184696 0.02033469 -0.014704555 0.11203118
-0.053553775 -0.09793398 0.019138873 0.028849334 -0.10997951 -0.017424941 0.059290722 -0.09111516
-0.08539502 -0.03943637 -0.073865205 -0.0873391 -0.08104104 -0.08652088 -0.05829613 -0.03599
-0.047259673 -0.10285695 -0.09278427 -0.061352 0.12302609 0.010933146 0.118436694 -0.032445908
-0.098376095 -0.046748698 -0.044329688 -0.1167645 0.097939104 0.06626038 0.05567324 0.04649718
0.040696323 -0.080692336 -0.034806192 -0.028668314 -0.05431333 0.058683857 0.095919594 -0.035127014
0.09522493 0.028008133 -0.046384797 -0.003646329 -0.08012666 0.07470177 -0.047305956 -0.052028835
-0.04888898 -0.116940245 0.067909434 -0.078207865 0.054149345 -0.021981925 -0.11647414 0.0064670593
0.023998097 -0.08220519 0.056755245 -0.121327385 -0.042881295 0.07656318 0.015372589 0.09076232
-0.10672961 -0.03486164 0.007185146 -0.09105851 -0.022009999 -0.05555959 -0.027956858 0.026391417
0.032865927 -0.024745226 -0.11557302 0.03992763 0.07772268 -0.039852917 0.11255255 -0.033752546
0.058984146 -0.084753856 -0.08202568 -0.02064766 -0.10903899 0.06741758 -0.022631586 0.05380006
0.039404556 0.07423878 0.020799756 -0.08790922 -0.048487455 0.09066889 0.062441573 0.10348241
00000000: 9256 f63d bef9 df3d 1058 223c d0b2 3f3d
00000010: b807 c83d bc0a 0bbd 729e d0bd 006e 243b
00000020: d054 fd3d 62d4 ccbd ecbf 15bd 3813 b33c
00000030: 00fd 7ebd fc02 4a3d 5cd5 353d f2f1 f13d
00000040: 80fe d7bd 9076 57bd e052 6b3c de04 9e3d
00000050: 64f9 23bd a2b8 bebd 90b7 623c 1037 65bd
00000060: c084 c93c 70c8 a63d 08d0 93bd 14c9 7d3d
00000070: b2d1 e9bd 78ac f4bd 1c46 a23d 8421 a9bd
00000080: 02f9 8cbd 502d 643d 1041 3b3c 00ce 2aba
00000090: 5a23 913d 5088 91bd a0bf c1bd 90c4 83bc
000000a0: 3cf6 f43d 20eb a6bd e06c 0ebd b0ba 51bd
000000b0: fc4a 743d 40cf c73b 40f3 1f3b fc85 793d
000000c0: e8bd 983c b2bc cf3d deb3 f83d 9882 a03d
000000d0: 186d f7bd a4c4 f4bd 40f8 5a3c f090 59bc
000000e0: cc9a cb3d 1c0a 3a3d bcc4 e53d e6e2 e73d
000000f0: 3893 f53d 5cdf aebd 2c9c 20bd ba15 aabd
00000100: a099 cbbd 6ca2 bcbd 58aa a93d 7802 bebc
00000110: 185c 7b3d 289b a7bc c233 aabd 167e e2bd
00000120: 60c0 d9bb d03f 9b3d 3647 cb3d ecca a2bd
00000130: 768c a53d 00ad 15bb 6ac4 afbd 1cec cbbd
00000140: c0da 64bd a804 81bd 3055 a0bd 9280 babd
00000150: e47c cabd f23a d13d 008f 003c e029 943d
00000160: 2254 f33d 347a 693d b822 d1bd 34e8 783d
00000170: c092 0b3b d8ea e63c ceb8 c63d 5a5e a5bd
00000180: 6c4e 6a3d ae54 aa3d ecfb f03d 8c7c 223d
00000190: 54c8 9ebd fc3d eebd 90d3 f93d 3e11 8fbd
000001a0: 5462 d63d c491 363d 50d8 c53c 54dc 61bd
000001b0: 76d5 de3d 04bd 1bbd b8fb 95bd 6aec 913d
000001c0: 70c1 40bc 2483 02bd 6afa f63d 7e0e d1bd
000001d0: 0693 f5bd bc3e 07bd 8012 1cbc e0a9 44bc
000001e0: 00aa 6b3b fae2 c63d 6444 a9bd 04c3 e4bd
000001f0: 70c3 00bc b8a8 14bd 7257 9d3d a646 903d
00000200: 7401 ecbd b861 4b3d 9c69 de3d 38ea cc3c
00000210: b0c8 dd3d 1a03 e83d 9c2f c2bd 8c5b 573d
00000220: ac7d 473d 80bf 58bd ac46 f2bd 9c42 303d
00000230: 88d7 c4bd 907c 9fbc a6be 9abd 78a5 75bd
00000240: 9032 adbc f264 f03d 4057 113b 6855 a0bd
00000250: 2a45 edbd 5ace 97bd c8f6 7b3d 40ba 95bd
00000260: a4e3 62bd 72ba bdbd 106b aebc 90b2 783c
00000270: d41d 10bd f094 a63c 60eb 70bc 9a70 e53d
00000280: 345b 5bbd 9c91 c8bd 20c9 9c3c 7055 ec3c
00000290: f03c e1bd c0be 8ebc d4da 723d 969a babd
000002a0: 96e3 aebd 0888 21bd a446 97bd d8de b2bd
000002b0: d8f8 a5bd dc31 b1bd ecc7 6ebd 406a 13bd
000002c0: 5c93 41bd aaa6 d2bd ae05 bebd 3c4c 7bbd
000002d0: 1af5 fb3d f020 333c f08e f23d 00e6 04bd
000002e0: 6879 c9bd 907b 3fbd 0c93 35bd 3a22 efbd
000002f0: 4c94 c83d 86b3 873d a009 643d d473 3e3d
00000300: 30b1 263d 0642 a5bd f090 0ebd d0d9 eabc
00000310: a877 5ebd 7c5e 703d 7e71 c43d 58e1 0fbd
00000320: 4a05 c33d 5071 e53c fcfd 3dbd 40f7 6ebb
00000330: 7219 a4bd 3efd 983d e4c3 41bd 301c 55bd
00000340: d03f 48bd 5e7e efbd 1a14 8b3d 722b a0bd
00000350: b4cb 5d3d 7013 b4bc fe89 eebd a0e9 d33b
00000360: a897 c43c 325b a8bd 3078 683d 7e7a f8bd
00000370: 4ca4 2fbd 28cd 9c3d 50dd 7b3c 98e1 b93d
00000380: 0e95 dabd 14cb 0ebd 6071 eb3b e27c babd
00000390: 504e b4bc 7492 63bd c805 e5bc d032 d83c
000003a0: 6c9e 063d 80b6 cabc 8cb1 ecbd 288b 233d
000003b0: 122d 9f3d d03c 23bd f481 e63d 1c40 0abd
000003c0: 5c99 713d 6e93 adbd 14fd a7bd 4825 a9bc
000003d0: d64f dfbd 3a12 8a3d e065 b9bc 745d 5c3d
000003e0: ac66 213d 800a 983d 4064 aa3c c009 b4bd
000003f0: c89a 46bd 9cb0 b93d bcc2 7f3d 96ee d33d

bias f4 [7]
0.114681676 -0.063811705 -0.03380546 -0.02690801 -0.044464275 0.1169804 -0.00019857287
00000000: 3ade ea3d b6af 82bd 9877 0abd 306e dcbc
00000010: 2c20 36bd 6c93 ef3d 0038 50b9

weight f4 [7, 64]
0.1197789 -0.04194154 0.030852512 0.110915884 0.074159324 -0.03408028 0.06033717 0.10933614
-0.1095223 -0.071180806 -0.11995946 0.016043752 0.03365664 -0.037757456 -0.02772732 -0.03947179
-0.07024731 0.033669636 -0.06077026 0.090187386 -0.055733442 -0.105402395 0.05372849 0.052986294
-0.03454967 -0.110277325 -0.0337995 -0.07714759 -0.072366655 0.039119482 0.08955778 -0.06366064
0.1018789 -0.118103564 0.123265415 0.051714182 0.03619939 0.08405705 0.10614544 0.11146484
-0.09960623 -0.08109386 0.11919731 -0.0277486 0.111962706 -0.098960906 -0.058569774 0.111522764
-0.017089844 -0.08574119 0.016740173 -0.08552861 0.014002219 0.11595042 -0.00943549 0.005874485
0.07615626 0.09140921 0.040231526 0.08145951 -0.0724708 -0.079431325 0.07082495 -0.11581978
0.112019405 -0.019512668 0.11440799 0.07216346 -0.066219464 -0.004436642 -0.021302998 0.09000416
-0.106635764 0.02691567 -0.07724793 0.05821833 0.054504335 0.009561509 0.03247124 0.060054407
0.015998289 -0.03209415 -0.09214717 0.087702334 -0.11784215 0.058768198 0.109359235 -0.036908895
0.07272422 0.0903078 -0.06591882 -0.08413574 -0.05755414 -0.10186039 -0.0025465935 -0.014762804
-0.09870325 -0.047716275 -0.10922666 -0.08745065 0.06431736 -0.025643572 -0.015507832 -0.080710515
-0.08412133 -0.07335234 -0.093092546 -0.024922624 0.077610254 -0.04829435 0.048551157 -0.10873149
-0.09205721 0.017724007 -0.08044396 0.09094836 0.028439969 0.003966242 -0.033506274 -0.10981195
0.015497595 0.08020796 -0.039366394 0.0004351288 0.08398996 -0.053193614 -0.086055934 -0.054296553
0.07162908 -0.11523226 -0.06376465 0.084416986 -0.07003726 -0.020836204 0.07922308 -0.12291601
-0.093660444 0.107015744 -0.06713343 0.02379486 -0.065188915 0.09194951 -0.019008547 -0.09706725
0.021513507 0.05493836 0.0166087 -0.047447294 0.059294477 -0.025145039 -0.073275894 -0.0020008981
-0.029998839 0.0064846277 0.10221431 0.088529885 -0.11418247 -0.037864625 -0.0035246462 0.04846576
0.122242615 0.09887764 -0.044319034 0.021982506 -0.048186168 -0.080737635 0.116834566 0.09211402
0.006591022 0.009408563 0.09068467 -0.01641354 -0.0978013 -0.0025077313 0.035815015 -0.011758372
0.076251835 0.11449167 -0.07898459 -0.0012314767 -0.016504988 -0.010672286 0.10754509 0.016459525
0.03809142 -0.10701397 -0.033150867 -0.040144026 0.10105693 -0.0011128485 -0.05051139 0.004894525
-0.025470436 -0.0028554946 0.08920498 0.083148 -0.009524852 0.1141253 -0.011504814 -0.01811035
0.10033156 0.11860579 -0.056853756 -0.016718343 -0.008435026 -0.09973231 -0.015489653 0.11941312
0.11214538 0.124331385 0.04992421 0.049309477 -0.07417922 -0.0211066 -0.0015025288 -0.024616376
0.009018421 -0.036786854 -0.098694384 -0.002517283 0.09934345 0.07729885 -0.055418402 0.07196161
0.07576795 -0.06653376 0.121645495 0.086395696 0.11501156 0.007838443 -0.023177251 -0.01108326
-0.1042532 -0.0008136332 -0.11868884 -0.009424195 -0.03145066 0.05179161 -0.11156842 -0.048868984
-0.06483573 0.06585917 -0.03627661 0.028735131 -0.11957532 -0.07673067 -0.009944588 -0.022297263
-0.12244688 0.0787504 -0.006069064 0.028454855 -0.10378556 0.097063124 -0.07708049 -0.07315284
00000000: a44e f53d e4ca 2bbd 68be fc3c de27 e33d
00000010: d8e0 973d c497 0bbd 1c24 773d a0eb df3d
00000020: 3a4d e0bd 3ec7 91bd 4ead f5bd 306e 833c
00000030: 8cdb 093d 90a7 1abd 6824 e3bc 2cad 21bd
00000040: d2dd 8fbd 2ce9 093d 3cea 78bd 2ab4 b83d
00000050: c048 64bd 36dd d7bd 6812 5c3d 2808 593d
00000060: f483 0dbd 14d9 e1bd 5871 0abd 8eff 9dbd
00000070: f834 94bd c03b 203d 126a b73d 8260 82bd
00000080: e2a5 d03d 48e0 f1bd 9472 fc3d 40d2 533d
00000090: d045 143d 1a26 ac3d c862 d93d ae47 e43d
000000a0: 5afe cbbd 8a14 a6bd b81d f43d 0851 e3bc
000000b0: b44c e53d 04ac cabd dce6 6fbd 0c66 e43d
000000c0: 0000 8cbc 1499 afbd b022 893c a029 afbd
000000d0: 9069 653c 6a77 ed3d 5097 1abc c07e c03b
000000e0: d0f7 9b3d c034 bb3d d0c9 243d 3ed4 a63d
000000f0: 926b 94bd e4ac a2bd ac0c 913d ec32 edbd
00000100: 6e6a e53d 08d9 9fbc bc4e ea3d 70ca 933d
00000110: 129e 87bd 4061 91bb a083 aebc 1a54 b83d
00000120: da63 dabd 407e dc3c 2a34 9ebd 5876 6e3d
00000130: f03f 5f3d e0a7 1c3c 9000 053d 9cfb 753d
00000140: d80e 833c 2875 03bd a8b7 bcbd 489d b33d
00000150: 3a57 f1bd ecb6 703d bcf7 df3d c82d 17bd
00000160: 70f0 943d 4cf3 b83d 7200 87bd 5c4f acbd
00000170: e4bd 6bbd 2e9c d0bd c0e4 26bb b0df 71bc
00000180: ee24 cabd 2472 43bd 3ab2 dfbd 5419 b3bd
00000190: d2b8 833d 7812 d2bc 9014 7ebc 8e4b a5bd
000001a0: ce47 acbd c039 96bd 4ea7 bebd 882a ccbc
000001b0: 20f2 9e3d 4cd0 45bd 94dd 463d 9eae debd
000001c0: 7e88 bcbd f031 913c cebf a4bd 2243 ba3d
000001d0: f0fa e83c 40f7 813b e03d 09bd 16e5 e0bd
000001e0: a0e9 7d3c 1244 a43d a83e 21bd 0022 e439
000001f0: ee02 ac3d 8ce1 59bd 183e b0bd 1066 5ebd
00000200: 44b2 923d e4fe ebbd 0a97 82bd d0e2 ac3d
00000210: b26f 8fbd b0b0 aabc b63f a23d 64bb fbbd
00000220: 0cd1 bfbd 122b db3d 407d 89bd 70ed c23c
00000230: c481 85bd 0650 bc3d d0b7 9bbc 32cb c6bd
00000240: 183d b03c 0c07 613d f80e 883c 1858 42bd
00000250: c4de 723d f8fc cdbc ac11 96bd 8021 03bb
00000260: 20c0 f5bc 007d d43b bc55 d13d 284f b53d
00000270: 80d8 e9bd f017 1bbd c0fd 66bb 0884 463d
00000280: 565a fa3d 5c80 ca3d e087 35bd a814 b43c
00000290: dc5e 45bd c659 a5bd f646 ef3d 46a6 bc3d
000002a0: 80f9 d73b 6026 1a3c e2b8 b93d b075 86bc
000002b0: 0c4c c8bd c058 24bb c4b2 123d 30a6 40bc
000002c0: ec29 9c3d 9c7a ea3d acc2 a1bd 8069 a1ba
000002d0: 7835 87bc d0da 2ebc 9a40 dc3d 20d6 863c
000002e0: c005 1c3d 242a dbbd 34c9 07bd 106e 24bd
000002f0: f0f6 ce3d 00dd 91ba 08e5 4ebd 4062 a03b
00000300: 60a7 d0bc 4023 3bbb 1ab1 b63d 8049 aa3d
00000310: 200e 1cbc 86ba e93d b07e 3cbc 285c 94bc
00000320: a27a cd3d 98e7 f23d 7cdf 68bd e8f4 88bc
00000330: 1033 0abc 7440 ccbd 50c8 7dbc de8e f43d
00000340: 7aac e53d 74a1 fe3d 547d 4c3d bcf8 493d
00000350: 46eb 97bd c0e7 acbc 80f0 c4ba 48a8 c9bc
00000360: 00c2 133c d0ad 16bd 4820 cabd 00f9 24bb
00000370: 9474 cb3d dc4e 9e3d 68fe 62bd 9c60 933d
00000380: 3a2c 9b3d da42 88bd 4621 f93d 3af0 b03d
00000390: 2e8b eb3d d06c 003c 38de bdbc 9096 35bc
000003a0: b482 d5bd 004a 55ba 2213 f3bd f067 1abc
000003b0: 68d2 00bd 7023 543d fc7d e4bd d82a 48bd
000003c0: 98c8 84bd 2ce1 863d c896 14bd f065 eb3c
000003d0: e8e3 f4bd f824 9dbd a0ee 22bc c0a8 b6bc
000003e0: 6ec5 fabd e447 a13d 00df c6bb 281a e93c
000003f0: 868d d4bd 08c9 c63d 60dc 9dbd 28d1 95bd

bias f4 [7]
0.0927027 0.10131581 0.117744505 0.06503917 0.034077123 -0.053614095 0.022603616
00000000: eada bd3d aa7e cf3d 0824 f13d 4233 853d
00000010: 7494 0b3d 749a 5bbd 382b b93c
